models/model_3.pt (torch, 98887 bytes, 9 tensors)

query.weight f4 [64, 4]
0.036952022 -0.10456648 0.30506492 -0.0043544266 0.36523423 0.3274776 -0.088690646 -0.21909337
-0.44751355 -0.1064041 0.41968974 0.20932378 0.080021486 -0.040597763 -0.006127453 0.10751773
0.08083747 -0.60972553 -0.090270266 -0.6065121 -0.18020172 0.27386427 0.0024561507 -0.4509024
0.55087864 0.32348898 0.34913376 0.43558648 0.35332778 -0.1304922 -0.00012836943 -0.23459409
-0.42339772 -0.25755844 0.3546742 0.020082902 0.31096005 0.34563076 -0.037229277 0.44500357
0.56539667 -0.13942179 -0.4296081 0.416843 -0.27698475 -0.2053302 -0.013651787 -0.5148624
-0.14676362 -0.28166655 -0.21753812 -0.36510643 0.20771183 0.16276236 0.48652065 -0.47829515
0.3637871 0.31666273 -0.44647893 0.41811407 0.009454364 -0.3081354 -0.20184082 0.29065672
-0.26751694 0.33949414 0.5019808 -0.21950273 0.31466538 -0.46361607 -0.2776871 -0.25675765
0.31733626 -0.0287295 -0.35150492 -0.3089496 0.3976458 0.38727185 0.13540013 0.13044009
-0.23321588 0.42096898 -0.34922874 0.26006585 -0.14178729 -0.26569414 0.21509784 0.34587246
0.13804205 0.008569566 -0.0011731354 0.25066707 -0.28023994 0.5647773 -0.18662046 -0.0814476
-0.20812728 0.34390885 0.00822028 0.16190238 0.51224 -0.38227174 0.09927142 0.20999894
0.3298022 0.06828124 0.27786964 0.42654455 0.37913373 -0.26321644 -0.44395602 -0.3105146
0.53072566 0.377013 -0.23180112 0.08189578 0.2285538 0.07522294 0.38635057 0.21008593
0.32599568 -0.22164197 -0.19263424 0.4395651 -0.20045011 -0.23129787 -0.44270214 -0.16800058
0.12359821 -0.27664927 -0.11058257 0.135955 0.06600374 0.3369587 0.09255709 0.029622916
-0.3416373 0.34900913 -0.15716033 -0.35283226 0.2179751 0.15756086 -0.5052279 -0.08053058
0.36282188 0.08193283 0.12798092 0.12953998 -0.38759997 -0.26483053 -0.056634586 -0.060085796
0.32699868 -0.13089757 0.51372665 -0.16862613 0.19162609 -0.24822444 -0.2287908 -0.2270989
-0.187748 -0.12908322 -0.37194207 -0.45240557 0.1342411 0.13752937 -0.22549202 -0.36351517
0.0044277776 -0.33843824 0.17667153 0.0768574 0.12924945 0.22892699 -0.3767186 -0.57397926
0.24011938 -0.00897738 0.022826415 0.39222825 -0.14548233 -0.3643033 -0.50331604 0.04142309
0.1888885 -0.44096687 0.103289075 0.2765156 -0.3546484 -0.32488233 0.25254244 0.4216033
-0.12888825 0.025645887 -0.41309237 -0.34399453 -0.37259442 -0.41881242 -0.26309907 -0.07531968
0.08362155 0.43018532 -0.1462724 0.24866304 0.11024785 -0.13030727 -0.26527584 0.034600962
0.07366841 0.0029092554 -0.3596511 0.0772239 0.10883848 0.28984478 -0.13818401 -0.42146266
0.38525182 0.41972014 -0.33157665 0.48350787 0.2560546 -0.26030186 -0.29812732 -0.29727685
0.037749864 -0.0059431414 -0.48812774 0.39539224 0.39189664 0.06733585 0.37944412 0.019435685
-0.20979667 0.12935528 0.016135508 -0.2868885 -0.02373424 -0.23538004 -0.3296283 0.03239878
-0.2334182 0.094512254 -0.5132824 -0.38822618 -0.25456014 -0.5142534 0.3685779 0.06864012
-0.22748859 -0.000111787165 -0.1540505 -0.30361214 0.38394198 -0.5925311 0.3443363 0.06555224
00000000: 015b 173d f326 d6bd 7831 9c3e 94af 8ebb
00000010: fbff ba3e 25ab a73e 71a3 b5bd 035a 60be
00000020: 7f20 e5be 65ea d9bd 93e1 d63e f958 563e
00000030: 4ee2 a33d d749 26bd cdc8 c8bb 4132 dc3d
00000040: 1e8e a53d f916 1cbf 9edf b8bd 6144 1bbf
00000050: cd86 38be f037 8c3e 5ff7 203b aedc e6be
00000060: 6206 0d3f 59a0 a53e a9c1 b23e 3105 df3e
00000070: 61e7 b43e bf9f 05be e89a 06b9 6f39 70be
00000080: 96c7 d8be b3de 83be db97 b53e e684 a43c
00000090: 2836 9f3e 84f6 b03e ba7d 18bd 82d7 e33e
000000a0: d6bd 103f 96c4 0ebe 98f5 dbbe 726c d53e
000000b0: f2d0 8dbe 1442 52be bfab 5fbc 06ce 03bf
000000c0: 3449 16be 9936 90be 50c2 5ebe 3bef babe
000000d0: 69b2 543e 2dab 263e 3c19 f93e 1ae3 f4be
000000e0: 4e42 ba3e 9e21 a23e e398 e4be 0c13 d63e
000000f0: 7ae6 1a3c ecc3 9dbe 5caf 4ebe f5d0 943e
00000100: fbf7 88be 2dd2 ad3e d081 003f 53c5 60be
00000110: d21b a13e 165f edbe 012d 8ebe bd75 83be
00000120: e679 a23e 215a ebbc 74f8 b3be a42e 9ebe
00000130: 3b98 cb3e 7f48 c63e 55a6 0a3e 1692 053e
00000140: 25d0 6ebe 3f89 d73e 1cce b2be 5a27 853e
00000150: b030 11be 1009 88be 9c42 5c3e 3216 b13e
00000160: e55a 0d3e 5d67 0c3c e4c3 99ba 6f57 803e
00000170: 9c7b 8fbe 3f95 103f 6f19 3fbe 00ce a6bd
00000180: 511f 55be d214 b03e 5aae 063c bdc9 253e
00000190: 2922 033f 1fb9 c3be d04e cb3d f609 573e
000001a0: d5db a83e 09d7 8b3d ee44 8e3e 0c64 da3e
000001b0: d11d c23e 4ec4 86be 344e e3be c5fb 9ebe
000001c0: a3dd 073f d907 c13e 465d 6dbe fab8 a73d
000001d0: 020a 6a3e 7c0e 9a3d becf c53e c420 573e
000001e0: e8e8 a63e 1df6 62be e941 45be ad0e e13e
000001f0: cb42 4dbe 59d9 6cbe dba9 e2be 5808 2cbe
00000200: 0f21 fd3d f9a4 8dbe 1d79 e2bd ca37 0b3e
00000210: f82c 873d da85 ac3e 928e bd3d c2ab f23c
00000220: 16eb aebe 53b1 b23e a3ee 20be 6ea6 b4be
00000230: dd34 5f3e a257 213e 9e56 01bf 37ed a4bd
00000240: cac3 b93e 66cc a73d 6e0d 033e 21a6 043e
00000250: 8173 c6be de97 87be abf9 67bd 861c 76bd
00000260: 5f6c a73e 030a 06be 9783 033f 54ac 2cbe
00000270: a139 443e 8c2e 7ebe 2348 6abe 9d8c 68be
00000280: 0341 40be 642e 04be 316f bebe b4a1 e7be
00000290: 8076 093e 80d4 0c3e 61e7 66be a91e babe
000002a0: e416 913b c747 adbe 62e9 343e 6a67 9d3d
000002b0: f859 043e d66b 6a3e 43e1 c0be 4ef0 12bf
000002c0: dbe1 753e dc15 13bc 76fe ba3c 24d2 c83e
000002d0: 52f9 14be f685 babe 52d9 00bf 42ab 293d
000002e0: fd6b 413e 69c6 e1be 3989 d33d 7493 8d3e
000002f0: 7a94 b5be fa56 a6be 3e4d 813e 63dc d73e
00000300: 48fb 03be 5317 d23c d880 d3be 0d20 b0be
00000310: b2c4 bebe 956e d6be ecb4 86be 3441 9abd
00000320: c641 ab3d 4041 dc3e 6fc8 15be 86a1 7e3e
00000330: a0c9 e13d 456f 05be 3cd2 87be bdb9 0d3d
00000340: 77df 963d 35a9 3e3b 3024 b8be 9027 9e3d
00000350: b6e6 de3d 8966 943e 1c80 0dbe f4c9 d7be
00000360: ba3f c53e 8fe5 d63e 6ac4 a9be 588e f73e
00000370: 9719 833e 4946 85be 25a4 98be ac34 98be
00000380: 9a9f 1a3d afbe c2bb e1eb f9be da70 ca3e
00000390: ada6 c83e 61e7 893d 8046 c23e 9637 9f3c
000003a0: f0d4 56be b675 043e 9d2e 843c 0de3 92be
000003b0: 4f6e c2bc 7707 71be 0ac5 a8be 95b4 043d
000003c0: 2e05 6fbe a48f c13d 7a66 03bf 95c5 c6be
000003d0: b555 82be 1ca6 03bf 3eb6 bc3e 3193 8c3d
000003e0: c5f2 68be 476f eab8 6abf 1dbe 0d73 9bbe
000003f0: 0b94 c43e 1eb0 17bf d94c b03e 4140 863d

query.bias f4 [64]
-0.54432815 -0.41811532 0.17752598 -0.15236941 -0.16753967 -0.2692011 -0.16364864 0.37437928
-0.056162767 -0.2675189 -0.45631838 -0.14532171 0.5310701 -0.029286992 -0.21692227 -0.23179868
-0.040430076 -0.23478515 -0.49854383 -0.49190566 0.52901804 -0.36611995 0.10204827 0.23498029
-0.47775403 0.3131038 -0.35625926 0.27577332 0.3884172 0.2547137 0.20897904 -0.20452757
-0.1389782 0.264076 0.14015828 0.11868432 -0.098469056 -0.19498272 -0.24795373 -0.030802203
-0.3643913 0.4769079 -0.42419037 0.026994416 0.11857816 -0.37902626 0.18577531 0.45421323
-0.3898662 0.030111847 -0.11831412 0.46371454 -0.48782817 0.33772397 -0.5366875 -0.033727963
0.07220468 -0.22264192 0.13085836 -0.4555467 0.38651073 -0.4180901 0.29905477 -0.07122108
00000000: 1759 0bbf 3613 d6be 5fc9 353e ba06 1cbe
00000010: 858f 2bbe bad4 89be 8293 27be a4ae bf3e
00000020: ee0a 66bd 3df8 88be 90a2 e9be 37cf 14be
00000030: 36f4 073f 46eb efbc df20 5ebe a25c 6dbe
00000040: 029a 25bd 856b 70be 2341 ffbe 0fdb fbbe
00000050: ba6d 073f 1374 bbbe affe d03d ac9e 703e
00000060: 2d9c f4be 244f a03e 9d67 b6be 2932 8d3e
00000070: 9fde c63e d669 823e 9afe 553e ad6f 51be
00000080: 4d50 0ebe f834 873e a785 0f3e c410 f33d
00000090: 25aa c9bd 8da9 47be 95e7 7dbe e754 fcbc
000000a0: 7f91 babe 462d f43e 7b2f d9be 6523 dd3c
000000b0: 1bd9 f23d bb0f c2be e23b 3e3e a38e e83e
000000c0: 8b9c c7be 1fad f63c ac4e f2bd fe6b ed3e
000000d0: 9dc4 f9be 28ea ac3e 5a64 09bf 5526 0abd
000000e0: 0ce0 933d 3efc 63be bcff 053e 6b3d e9be
000000f0: bce4 c53e e80f d6be b51d 993e 5cdc 91bd

key.weight f4 [64, 4]
0.42959595 -0.4014234 0.2593547 -0.120790325 0.10893734 0.4902249 -0.119188614 -0.37357634
0.2536092 0.12152093 0.101580046 0.42998043 0.05741344 -0.4580993 0.047281962 -0.39731196
0.54141647 -0.052563336 0.47215357 -0.23599032 -0.12511966 0.19120358 0.19615372 -0.16459128
-0.5141074 0.4232642 -0.09622087 0.31716806 0.42620924 -0.31055468 -0.2542787 0.3409111
-0.16987278 -0.39632598 0.44404808 -0.354339 0.07249674 -0.39863896 0.20090695 -0.28325474
-0.3919117 0.2035577 -0.4578957 -0.17689256 0.3378264 -0.086173825 -0.4272297 0.35698318
-0.023108028 0.11534738 -0.27514473 -0.3799097 0.23992452 0.45495534 0.3815624 -0.17035544
-0.2972965 -0.18757622 0.060766045 -0.094420664 -0.12379787 0.4580852 -0.28892565 -0.6459008
0.24910156 -0.09448254 0.40424725 0.41513678 0.38301152 0.21624933 0.4928978 -0.4370031
-0.33416873 -0.30689538 -0.28562048 0.19568053 0.24587935 -0.38074765 -0.02955781 0.42161843
0.0832802 0.18418196 0.058853265 0.4528098 0.5159911 -0.49371487 0.32966986 0.37956542
0.40841028 0.20433226 -0.025398044 0.5307375 -0.07063052 -0.29222897 -0.23654072 0.27299723
0.16581102 0.006121468 0.40058258 0.34076205 -0.08508244 -0.10875317 -0.28223082 0.04468941
-0.08175212 0.26537916 -0.2639952 -0.007201341 0.3329998 -0.0124221835 0.2723102 0.32152408
-0.26302752 0.1381857 -0.014325526 0.14432675 -0.4006596 -0.34151068 -0.47828442 -0.41765976
-0.053913027 -0.12168659 0.12795864 0.39006704 0.056878254 -0.37763292 0.025942273 0.38836145
0.11130787 0.29170668 -0.059421167 0.008369339 -0.501525 0.41258416 -0.36845863 -0.31857795
0.038652748 -0.27389044 0.26279524 0.07394056 -0.5239419 -0.051560476 0.46757907 -0.16221151
0.3790114 0.44322205 0.15137509 0.54578376 -0.07276609 -0.43314976 0.26938674 0.33468485
0.2740189 0.3009158 0.24432507 -0.3934954 0.36122045 -0.013651564 0.24807729 0.2436929
0.4653253 0.19329666 0.15368637 0.27872726 0.025844345 0.011673601 0.18159205 0.2221391
-0.33354735 -0.14248446 0.30323175 0.14567755 0.006823052 0.2647592 0.270928 0.41553348
0.043663964 0.18967457 -0.12111568 0.48427516 -0.3680235 -0.089648634 0.29180172 -0.4175599
0.41095468 -0.021422066 -0.15896772 -0.33225065 0.56032914 -0.32987976 -0.2336501 -0.007921326
0.291665 -0.030951325 -0.35708904 0.20118144 0.36037168 0.16717355 -0.11051658 -0.45806155
-0.39542067 -0.01880427 0.19092225 0.6449327 -0.23623627 0.17053023 -0.16898893 -0.3132269
-0.39420128 -0.47907957 0.14204022 0.033074237 0.19752562 -0.23204452 0.2764309 0.11810984
-0.31406608 -0.43295935 0.4378371 0.11129371 -0.41462305 -0.09718278 -0.48773298 -0.23847345
-0.46600717 -0.120952666 -0.4778749 -0.048183635 0.043238357 0.44162613 -0.32051378 0.03288132
0.064901024 -0.29040626 -0.14757898 -0.1953562 0.21060479 -0.18623693 0.4398442 -0.30447403
-0.3725717 -0.4383398 -0.05623018 -0.34045523 0.14822985 0.4718405 0.50430477 0.23565874
-0.12694567 -0.38512126 0.18987136 0.31602198 0.44692913 -0.16287394 -0.30410022 -0.48854455
00000000: 00f4 db3e 5e87 cdbe 24ca 843e eb60 f7bd
00000010: 8a1a df3d c2fe fa3e 2919 f4bd 6645 bfbe
00000020: 11d9 813e f7df f83d 3309 d03d 6526 dc3e
00000030: 5b2a 6b3d fe8b eabe bbaa 413d 796c cbbe
00000040: 459a 0a3f a74c 57bd 1dbe f13e 72a7 71be
00000050: 5e1f 00be dfca 433e 85dc 483e 9e8a 28be
00000060: 8b9c 03bf 16b6 d83e 730f c5bd da63 a23e
00000070: 1938 da3e 0601 9fbe d130 82be e68b ae3e
00000080: 21f3 2dbe 3deb cabe 455a e33e ec6b b5be
00000090: 2c79 943d 681a ccbe 8dba 4d3e c406 91be
000000a0: a6a8 c8be 6e71 503e 4e71 eabe 5323 35be
000000b0: 95f7 ac3e e77b b0bd dabd dabe 80c6 b63e
000000c0: 0c4d bdbc 3f3b ec3d c5df 8cbe 8683 c2be
000000d0: c6ae 753e e8ef e83e 265c c33e a871 2ebe
000000e0: 3f37 98be fb13 40be d1e5 783d 9f5f c1bd
000000f0: bd89 fdbd 258a ea3e 10ee 93be c159 25bf
00000100: 7b14 7f3e 1080 c1bd 7ff9 ce3e cf8c d43e
00000110: 161a c43e 7770 5d3e 1a5d fc3e dfbe dfbe
00000120: 2a18 abbe 6421 9dbe d93c 92be 7a60 483e
00000130: ccc7 7b3e 5bf1 c2be 3823 f2bc 5fde d73e
00000140: cf8e aa3d 329a 3c3e 1f10 713d b0d6 e73e
00000150: fe17 043f 32c8 fcbe 7dca a83e 6656 c23e
00000160: 271b d13e 7a3c 513e 8f0f d0bc 6ade 073f
00000170: bca6 90bd 099f 95be bb37 72be 4bc6 8b3e
00000180: 5dca 293e 9896 c83b 2919 cd3e 5d78 ae3e
00000190: b43f aebd fbb9 debd 8f80 90be 3e0c 373d
000001a0: a86d a7bd c7df 873e 612a 87be 3af9 ebbb
000001b0: f37e aa3e 6a86 4bbc 3e6c 8b3e ce9e a43e
000001c0: 8bab 86be 8d80 0d3e 9cb5 6abc 64ca 133e
000001d0: 4123 cdbe 7dda aebe b2e1 f4be 80d7 d5be
000001e0: e8d3 5cbd d236 f9bd 9707 033e deb6 c73e
000001f0: 2cf9 683d 1a59 c1be e484 d43c 50d7 c63e
00000200: 61f5 e33d 945a 953e 9c63 73bd 8d1f 093c
00000210: f163 00bf 3b3e d33e 9ca6 bcbe a61c a3be
00000220: 5852 1e3d 5e3b 8cbe 198d 863e 266e 973d
00000230: 0e21 06bf 1431 53bd 8666 ef3e c61a 26be
00000240: c80d c23e 00ee e23e 1202 1b3e 7cb8 0b3f
00000250: 6306 95bd cec5 ddbe 0fed 893e d05b ab3e
00000260: 354c 8c3e a311 9a3e 5a30 7a3e 3b78 c9be
00000270: e3f1 b83e cfaa 5fbc f907 7e3e a28a 793e
00000280: 1e3f ee3e 8fef 453e f65f 1d3e 57b5 8e3e
00000290: 85b7 d33c a242 3f3c 44f3 393e 6f78 633e
000002a0: b8c6 aabe 72e7 11be 3141 9b3e 7f2c 153e
000002b0: e993 df3b 858e 873e 13b7 8a3e cec0 d43e
000002c0: fcd8 323d 0d3a 423e 7f0b f8bd eaf2 f73e
000002d0: 946d bcbe b499 b7bd 0967 953e 69ca d5be
000002e0: a768 d23e 547d afbc 6fc8 22be c21c aabe
000002f0: bb71 0f3f 00e6 a8be f941 6fbe 73c8 01bc
00000300: 1d55 953e a28d fdbc 60d4 b6be 8202 4e3e
00000310: a382 b83e 8b2f 2b3e 8456 e2bd 0b87 eabe
00000320: 9474 cabe 6a0b 9abc 1f81 433e 4f1a 253f
00000330: ece7 71be 7a9f 2e3e 6f0b 2dbe 475f a0be
00000340: c0d4 c9be eb49 f5be fe72 113e da78 073d
00000350: 2844 4a3e 149d 6dbe 5a88 8d3e 92e3 f13d
00000360: 45cd a0be d9ac ddbe 2f2c e03e f5ed e33d
00000370: 7949 d4be c407 c7bd 23b8 f9be 6232 74be
00000380: 7e98 eebe 08b6 f7bd 05ac f4be 345c 45bd
00000390: b41a 313d d21c e23e 621a a4be 90ae 063d
000003a0: d4ea 843d 21b0 94be f21e 17be 750b 48be
000003b0: c8a8 573e e5b4 3ebe 4233 e13e 05e4 9bbe
000003c0: b8c1 bebe 136e e0be 9e51 66bd 2650 aebe
000003d0: 91c9 173e 1495 f13e 1e1a 013f 8650 713e
000003e0: 0cfe 01be 9d2e c5be a36d 423e a2cd a13e
000003f0: e5d3 e43e 6dc8 26be 06b3 9bbe 8322 fabe

key.bias f4 [64]
0.23125601 0.54788065 0.24822223 -0.06080043 0.25633758 -0.23125765 0.21272396 0.3651452
0.1793708 -0.05389897 0.5061301 0.24513371 0.010745043 -0.24919611 0.45153746 0.4669627
0.3366947 0.32328072 0.4906821 0.27423772 0.037357982 -0.48877072 -0.3847322 -0.29966727
-0.4668611 0.36500412 -0.38595283 -0.4046496 -0.29235506 -0.113330826 0.5189631 -0.44988042
0.2896608 -0.1128536 -0.14710905 -0.04832844 -0.3171974 0.3159024 -0.3064149 0.48335317
-0.27214986 -0.34845766 -0.46793112 0.1867096 -0.2950548 -0.21414237 -0.31759706 0.4244841
-0.35998282 -0.41868424 0.09090851 -0.12427853 -0.09351537 0.10000842 -0.42556316 -0.09270363
0.30150926 0.08481282 -0.028222527 0.31865638 -0.28291002 0.14108004 -0.039191507 0.20203468
00000000: 60ce 6c3e e841 0c3f f82d 7e3e df09 79bd
00000010: ae3e 833e cece 6cbe 4fd4 593e 50f4 ba3e
00000020: fbac 373e 2bc5 5cbd be91 013f 5504 7b3e
00000030: fa0b 303c 442d 7fbe eb2f e73e bc15 ef3e
00000040: 3f63 ac3e 0d85 a53e af3a fb3e e368 8c3e
00000050: af04 193d 2840 fabe 9efb c4be fd6d 99be
00000060: 6b08 efbe d2e1 ba3e 9c9b c5be 3b2e cfbe
00000070: 90af 95be fe19 e8bd c4da 043f ba56 e6be
00000080: 6c4e 943e ca1f e7bd c1a3 16be 0bf4 45bd
00000090: b367 a2be f6bd a13e 6ae2 9cbe 117a f73e
000000a0: 3a57 8bbe 0b69 b2be ab94 efbe cd30 3f3e
000000b0: 6c11 97be 2348 5bbe 159c a2be fb55 d93e
000000c0: ab4f b8be c85d d6be 3e2e ba3d be85 febd
000000d0: fc84 bfbd 37d1 cc3d 6ae3 d9be 67db bdbd
000000e0: 6c5f 9a3e 58b2 ad3d ee32 e7bc ee26 a33e
000000f0: 95d9 90be 4977 103e 4687 20bd 2ee2 4e3e

value.weight f4 [64, 4]
-0.029794093 0.039108235 0.4594335 -0.055006135 -0.18186882 0.17506608 0.2389122 0.068389304
-0.030976398 0.05858297 0.18638909 -0.20799965 -0.098293856 0.15378442 0.44520667 -0.38940078
-0.059023496 0.05134368 0.48419476 0.20113662 0.0012636139 0.019035317 0.3120102 -0.18796553
0.039657645 -0.041298803 0.1575589 -0.1370484 0.006175232 -0.0067635705 -0.033636972 0.05472356
0.08318569 -0.11451318 -0.5616575 0.17587678 0.05163082 -0.03831382 -0.24837008 -0.168134
0.09833853 -0.15614277 0.17206968 0.3351834 0.019250795 -0.028528469 -0.34794244 0.1959508
0.21241646 -0.25766292 -0.38874555 -0.11009333 -0.007787053 -0.001477918 0.20761664 0.06443672
-0.023481857 0.019123428 -0.32178202 0.07672928 0.014774563 -0.023955736 0.09229116 0.1165997
-0.055843007 0.066857785 0.4810196 0.08440522 -0.17220627 0.1815523 -0.42581877 0.42773086
0.014803751 0.00992949 0.112978145 -0.22990172 -0.002573422 0.049019925 -0.41708884 -0.42468876
0.1298482 -0.17642607 0.050581202 0.19677994 0.121900804 -0.17841446 0.20212227 0.23940878
-0.003999412 0.014221224 -0.13311951 -0.06290132 0.07754579 -0.123931095 -0.22476622 0.40624005
0.20216972 -0.24193425 -0.7095995 -0.06656852 0.018638521 0.020988196 0.1074338 -0.40704003
-0.028242633 0.03741686 0.37806818 -0.13676625 -0.20084633 0.26918584 0.04237356 -0.26480946
-0.046222 0.07270824 -0.13280068 -0.20491013 0.113505505 -0.19591914 0.5222879 0.56910586
0.018308893 -0.004154316 0.117014915 -0.2312499 0.19574475 -0.24621646 -0.4197071 -0.009363691
0.059582766 -0.05453856 -0.49308968 -0.15057172 0.07683733 -0.11707657 -0.47892967 0.34467918
0.08677391 -0.07782848 0.022759056 -0.2445381 -0.06853079 0.03391488 0.53596073 0.54456097
-0.02137617 0.016192364 -0.20074093 0.047493596 0.013324261 0.006944634 -0.37617236 -0.13500892
-0.08622424 0.121143304 -0.0058270255 -0.066251375 -0.19540246 0.22415765 0.21792825 0.15913801
0.081100695 -0.10106772 0.013586406 -0.02417052 0.007318541 -0.022945736 0.22917421 0.12512296
0.10269686 -0.1625045 0.14480442 0.3210358 0.0044124187 -0.014583218 0.17407155 0.16627252
-0.06077911 0.0762234 0.48050037 -0.009914028 0.053165972 -0.040642176 -0.3624474 -0.31719366
-0.1852025 0.23071937 0.6714799 -0.12304712 -0.004070499 0.009521532 0.426545 -0.077215
-0.1081637 0.15862171 0.4565093 -0.39290684 -0.1454973 0.1868686 0.12259425 -0.14208739
-0.13438694 0.17680807 0.37942532 -0.053617235 0.046461716 -0.017872656 0.2356354 -0.517822
0.05716064 -0.05217504 -0.29067555 -0.19745553 0.16054055 -0.17197803 -0.045627058 -0.26451087
-0.17970039 0.23086347 -0.019929571 -0.029206954 -0.010623741 0.033608556 -0.28941092 -0.28275228
0.054761574 -0.107050635 -0.22650841 0.556747 -0.007219476 0.022006417 0.45123333 -0.19555727
-0.00059861207 -0.00121725 0.035821337 0.020295471 0.09696058 -0.11594478 0.038315855 -0.074892744
0.045610912 -0.090831004 -0.16811994 0.39459378 0.023270624 -0.074357465 0.4341732 0.39678818
0.0059145773 0.02117841 -0.013445969 -0.2674607 0.20300306 0.10318481 0.49417394 -0.8622543
00000000: be12 f4bc f52f 203d de3a eb3e 1d4e 61bd
00000010: d23b 3abe 8644 333e 66a5 743e b10f 8c3d
00000020: 37c2 fdbc b2f4 6f3d c8dc 3e3e dcfd 54be
00000030: 4a4e c9bd aa79 1d3e 21f2 e33e 8a5f c7be
00000040: 9fc2 71bd c04d 523d 60e8 f73e c2f6 4d3e
00000050: d99f a53a f4ef 9b3c cdbf 9f3e 097a 40be
00000060: 0e70 223d ef28 29bd 1f57 213e 6a56 0cbe
00000070: 9a59 ca3b f1a0 ddbb ecc6 09bd d025 603d
00000080: 425d aa3d e385 eabd c9c8 0fbf 0b19 343e
00000090: d77a 533d f4ee 1cbd ba54 7ebe 522b 2cbe
000000a0: b665 c93d e4e3 1fbe 0933 303e 299d ab3e
000000b0: d8b3 9d3c 89b4 e9bc 8325 b2be 54a7 483e
000000c0: b383 593e 65ec 83be a809 c7be 9d78 e1bd
000000d0: 892a ffbb b3b6 c1ba 7599 543e 66f7 833d
000000e0: 065d c0bc bca8 9c3c 9dc0 a4be 3e24 9d3d
000000f0: 0211 723c d23e c4bc 2603 bd3d d3cb ee3d
00000100: a3bb 64bd bcec 883d 3348 f63e a5dc ac3d
00000110: d756 30be d9e8 393e eb04 dabe 8aff da3e
00000120: 6f8b 723c 4daf 223c 1661 e73d 5b6b 6bbe
00000130: dba6 28bb 1ec9 483d ab8c d5be ce70 d9be
00000140: edf6 043e 09a9 34be 3c2e 4f3d ae80 493e
00000150: 21a7 f93d 48b2 36be 24f9 4e3e 9327 753e
00000160: 800d 83bb 2300 693c 7b50 08be 68d2 80bd
00000170: 54d0 9e3d 96cf fdbd 1e29 66be b2fe cf3e
00000180: 9405 4f3e 9dbd 77be 50a8 35bf 1455 88bd
00000190: d0af 983c 70ef ab3c 4106 dc3d 8d67 d0be
000001a0: 185d e7bc 6c42 193d 2792 c13e 740c 0cbe
000001b0: a9aa 4dbe bad2 893e e68f 2d3d 1b95 87be
000001c0: 4853 3dbd 0fe8 943d e7fc 07be f6d3 51be
000001d0: 9375 e83d 079f 48be a9b4 053f ecb0 113f
000001e0: 88fc 953c ee20 88bb 84a5 ef3d c6cc 6cbe
000001f0: 5071 483e 2b20 7cbe d9e3 d6be 2b6a 19bc
00000200: 0f0d 743d d363 5fbd 4076 fcbe 792f 1abe
00000210: e45c 9d3d d7c5 efbd 4536 f5be ca79 b03e
00000220: 85b6 b13d 8a64 9fbd 3371 ba3c 3268 7abe
00000230: df59 8cbd 54ea 0a3d b934 093f 5968 0b3f
00000240: 141d afbc d9a5 843c 088f 4dbe a588 423d
00000250: 004e 5a3c d08f e33b aa99 c0be c73f 0abe
00000260: 5696 b0bd fb19 f83d a2f0 bebb cdae 87bd
00000270: 9517 48be 9589 653e 9528 5f3e 13f5 223e
00000280: 1f18 a63d 98fc cebd 8499 5e3c 4101 c6bc
00000290: 5fd0 ef3b b2f8 bbbc a5ac 6a3e 3c20 003e
000002a0: bb52 d23d 9467 26be 9c47 143e ce5e a43e
000002b0: 0d96 903b 73ee 6ebc d03f 323e 5843 2a3e
000002c0: 84f3 78bd 041b 9c3d 2504 f63e 736e 22bc
000002d0: 90c4 593d 6978 26bd b592 b9be 3567 a2be
000002e0: b9a5 3dbe b341 6c3e 1be6 2b3f 2100 fcbd
000002f0: d261 85bb 3300 1c3c 1b64 da3e e622 9ebd
00000300: ee84 ddbd bb6d 223e 96bb e93e 162b c9be
00000310: 3ffd 14be 7b5a 3f3e b212 fb3d 5b7f 11be
00000320: bb9c 09be 2d0d 353e 0944 c23e bf9d 5bbd
00000330: a44e 3e3d ad69 92bc 684a 713e fc8f 04bf
00000340: 4621 6a3d 7fb5 55bd 6dd3 94be c831 4abe
00000350: be64 243e 021b 30be 70e3 3abd f86d 87be
00000360: 6103 38be 7967 6c3e 5743 a3bc 6c43 efbc
00000370: 330f 2ebc 20a9 093d ab2d 94be e8c4 90be
00000380: ac4d 603d 5d3d dbbd d2f1 67be f986 0e3f
00000390: 5b91 ecbb cd46 b43c 0e08 e73e 2a40 48be
000003a0: 2dec 1cba 228c 9fba 65b9 123d b042 a63c
000003b0: 4593 c63d 7574 edbd 16f1 1c3d 5e61 99bd
000003c0: 82d2 3a3d 9b05 babd a227 2cbe 3208 ca3e
000003d0: 09a2 be3c ba48 98bd f34b de3e d227 cb3e
000003e0: 12cf c13b 587e ad3c 7b4c 5cbc 9cf0 88be
000003f0: 09e0 4f3e 8f52 d33d 5e04 fd3e b3bc 5cbf

value.bias f4 [64]
-0.21750985 -0.51224643 -0.1407187 0.023716114 -0.0670798 -0.35644183 0.08663634 -0.18262382
-0.24176458 -0.7813466 -0.11711608 -0.7482382 0.42097545 0.9004634 0.5992798 -0.50109506
-0.5351652 -0.19917749 -0.7263955 -0.44460893 -0.2423733 0.18592215 -0.26808614 -0.29803428
-0.71123403 -0.8056608 0.40209037 0.4840589 0.4553556 0.09153892 0.039394397 0.1693625
-0.107071325 -0.19202797 -0.81061894 -0.034399476 0.32669762 -0.53526825 -0.5049661 0.62196964
-0.09733476 -0.21580158 0.2510081 -0.48987773 -0.20877941 0.16457058 0.83588165 0.104503654
0.4276891 0.90983295 -0.24557564 -0.0047611985 -0.1798215 -0.6386907 -0.44668123 -0.9641658
-0.3708679 0.035530124 -0.22062324 -0.26577923 0.15999775 0.6896393 0.10011637 -0.31105542
00000000: e7ba 5ebe 9522 03bf 9018 10be 4c48 c23c
00000010: 2261 89bd 8b7f b6be 656e b13d bd01 3bbe
00000020: 2291 77be 5506 48bf 8eda efbd 8a8c 3fbf
00000030: 188a d73e c584 663f 676a 193f c447 00bf
00000040: 9600 09bf 2ff5 4bbe 0ef5 39bf c8a3 e3be
00000050: b530 78be 6062 3e3e 9642 89be f397 98be
00000060: 6f13 36bf c93f 4ebf cade cd3e 91d6 f73e
00000070: 5f24 e93e c278 bb3d 055c 213d 5d6d 2d3e
00000080: 3648 dbbd fba2 44be b984 4fbf 77e6 0cbd
00000090: e944 a73e 5707 09bf 7545 01bf 6739 1f3f
000000a0: 7257 c7bd 17fb 5cbe 2284 803e 41d1 fabe
000000b0: 45ca 55be 3185 283e 57fc 553f 0306 d63d
000000c0: 11fa da3e d0ea 683f 2e78 7bbe d403 9cbb
000000d0: 2123 38be 3c81 23bf 67b3 e4be 92d3 76bf
000000e0: 66e2 bdbe 0988 113d 0feb 61be 3714 88be
000000f0: 73d6 233e 338c 303f d009 cd3d a842 9fbe

fc3_adv.weight f4 [19, 1152]
0.006508161 -0.022236051 -0.0162013 0.018613022 0.0030015705 0.005413137 -0.011783661 0.014049739
-0.008593977 -0.0152688585 -0.019596267 0.047817465 -0.012721295 -0.0018543528 0.022796145 -0.0061813467
0.004710532 0.017669657 0.013890131 -0.014246495 0.009414475 0.0026609108 0.012023166 -0.0013945937
0.0038633037 -0.017757706 -0.032462217 0.008764707 -0.013411049 0.0007038824 -0.019496895 0.009126268
-0.009482297 0.029527782 -0.027342208 -0.0016000546 0.008781181 0.014277826 -0.02396037 0.021211276
0.018218054 -0.015178537 0.028737208 -0.009884074 -0.010967476 0.005441738 0.010048005 0.0085944515
-0.028377011 0.0005446062 -0.014823906 -0.0022678142 -0.004508144 0.025572171 -0.028545668 -0.017038502
-0.0080867 0.00063684623 -0.008862311 0.0047866106 -0.011857952 -0.0072769737 -0.0287676 -0.0220197
-0.01932854 -0.015073417 -0.019285666 0.022091452 -0.011370799 -0.0146618355 -0.022995956 -0.029019034
0.027813602 0.02235742 -0.018325888 0.049797088 0.0017464586 -0.014136558 -0.013185777 -0.0027031463
-0.015905695 0.0022270202 0.0020413594 0.03222978 -0.0059042023 0.023375506 0.004058376 -0.008156967
-0.00028670358 0.009630324 -0.018448379 0.016789936 -0.0286391 0.019538395 -0.009233481 0.031954765
0.00081902044 0.0016768596 -0.008062776 -0.004076754 -0.010417582 -0.0009327164 -0.02770278 -0.009488192
-0.010383842 0.013763473 -0.019385893 0.029048782 -0.033987228 -0.02973015 -0.011948001 0.0077101355
0.02550804 0.020540606 -0.02247901 -0.004316091 -0.02411923 0.020201394 -0.011301678 -0.01965782
-0.02374912 -0.015435068 0.022931078 0.006450455 -0.023657609 -0.030222831 -0.00866155 -0.023045668
0.0048486125 -0.021941707 0.017637271 -0.011214283 0.024693111 -0.00625885 -0.018526133 0.0024950465
0.040654615 0.005230052 0.0073880465 0.053277504 0.03285155 -0.028997544 0.013471424 -0.0023966404
0.0017501332 0.019137379 -0.011474608 0.011216518 0.029523967 0.021634087 0.025129128 0.018050922
0.01081194 0.023436649 0.012487641 -0.020204928 0.020589419 -0.017743804 0.008033939 0.027466532
0.023687841 0.017245732 0.0056850063 -0.02387595 -0.0069177165 0.03083729 0.022100613 0.0038834875
0.0025303366 0.00506636 0.007273949 -0.01792864 -0.031292625 0.028234756 -0.017076816 -0.002604609
0.010501866 -0.006369175 -0.005713636 0.014137919 -0.010444084 0.0004283595 -0.0035157925 0.026883252
-0.014000807 0.003654533 -0.01771234 0.014754089 -0.02230107 -0.026685093 0.0225791 0.0014809398
-0.01557899 -0.016777543 0.006746215 0.01622566 -0.029630778 0.010012632 0.014513659 0.02140775
-0.015537407 0.015525925 0.026120985 0.009477026 0.025888493 -0.011878888 0.0008533852 -0.008919518
0.0041900943 0.024600344 0.0152083095 -0.024377245 0.018494373 0.017682757 0.012389469 0.0008821848
0.003506028 -0.007852023 0.0022927984 0.011346344 -0.024533806 -0.0053310147 0.0058976365 -0.01750538
0.00043778494 -0.015201921 0.0035241435 0.015341082 -0.027475094 0.025005445 -0.005272739 -0.017936863
0.01238312 0.009059818 0.015380735 0.004999428 0.010881766 0.0057592453 -0.013211381 0.003293817
-0.005067675 -0.030423174 -5.6430876e-05 0.011968952 -0.011951987 -0.022293784 -0.0012719544 -0.014740585
0.018987652 0.017288899 0.018274726 0.015450608 0.029432967 -0.009328679 0.021442687 0.025413655
00000000: 6942 d53b 6128 b6bc 97b8 84bc 567a 983c
00000010: ffb5 443b af60 b13b 4210 41bc e030 663c
00000020: c1cd 0cbc 3c2a 7abc 5a88 a0bc 3fdc 433d
00000030: fa6c 50bc c10d f3ba fbbe ba3c e58c cabb
00000040: ce5a 9a3b f5bf 903c 6f93 633c 226a 69bc
00000050: 2c3f 1a3c ad62 2e3b d0fc 443c cdca b6ba
00000060: 7b2f 7d3b 9c78 91bc 1af7 04bd d899 0f3c
00000070: 04ba 5bbc c084 383a f4b7 9fbc 5886 153c
00000080: a35b 1bbc 3fe4 f13c c4fc dfbc ecb8 d1ba
00000090: f1de 0f3c 8bed 693c 8a48 c4bc 45c3 ad3c
000000a0: 073e 953c 66af 78bc 4b6a eb3c d0f0 21bc
000000b0: eeb0 33bc 9b50 b23b 63a0 243c becf 0c3c
000000c0: e876 e8bc e7c3 0e3a f8df 72bc 9c9f 14bb
000000d0: 0eb9 93bb bb7c d13c 9bd8 e9bc 5494 8bbc
000000e0: 147e 04bc 07f2 263a 3a33 11bc 00d9 9c3b
000000f0: db47 42bc ae73 eebb 08aa ebbc a862 b4bc
00000100: e356 9ebc 7ef6 76bc f9fc 9dbc 22f9 b43c
00000110: 964c 3abc 3238 70bc 0462 bcbc 53b9 edbc
00000120: 5ad9 e33c e826 b73c 2c20 96bc 08f8 4b3d
00000130: 6de9 e43a 069d 67bc 2809 58bc 4527 31bb
00000140: a94c 82bc 33f3 113b 54c8 053b 6003 043d
00000150: 0a78 c1bb fd7d bf3c 20fc 843b cda4 05bc
00000160: b450 96b9 82c8 1d3c 0e21 97bc 0c8b 893c
00000170: 8c9c eabc fc0e a03c 0748 17bc 00e3 023d
00000180: 88b3 563a 12ca db3a bc19 04bc 4b96 85bb
00000190: 81ae 2abc 8a81 74ba f1f0 e2bc 5d74 1bbc
000001a0: fd20 2abc 3180 613c 2acf 9ebc b6f7 ed3c
000001b0: 3136 0bbd a58c f3bc 8cc1 43bc 4ea5 fc3b
000001c0: 3df6 d03c c644 a83c e725 b8bc ff6d 8dbb
000001d0: b195 c5bc 657d a53c ac2a 39bc 7009 a1bc
000001e0: 848d c2bc 5ee3 7cbc f5d9 bb3c 575e d33b
000001f0: 9acd c1bc df95 f7bc 2ce9 0dbc 45ca bcbc
00000200: 1ce1 9e3b 18bf b3bc 0a7c 903c 1dbc 37bc
00000210: 3549 ca3c 0a17 cdbb 1ec4 97bc ef83 233b
00000220: 7485 263d db60 ab3b 6d17 f23b 8339 5a3d
00000230: 598f 063d 428c edbc 3fb7 5c3c f410 1dbb
00000240: ba64 e53a fec5 9c3c ffff 3bbc 7cc5 373c
00000250: 3fdc f13c f839 b13c 9adb cd3c 87df 933c
00000260: 9024 313c 37fe bf3c f698 4c3c ce84 a5bc
00000270: 24ab a83c 745b 91bc c8a0 033c 7e01 e13c
00000280: 010d c23c ec46 8d3c 4a49 ba3b 7f97 c3bc
00000290: 03ae e2bb 7c9e fc3c 580c b53c 1c82 7e3b
000002a0: 01d4 253b b503 a63b 4f5a ee3b 15df 92bc
000002b0: b22c 00bd 934c e73c aee4 8bbc 16b2 2abb
000002c0: 0510 2c3c 83b4 d0bb 7439 bbbb bba2 673c
000002d0: aa1d 2bbc 7095 e039 3669 66bb 443a dc3c
000002e0: a463 65bc e480 6f3b 7819 91bc 22bb 713c
000002f0: bcb0 b6bc b29a dabc cef7 b83c 181c c23a
00000300: 053f 7fbc 0f71 89bc 5a0f dd3b adeb 843c
00000310: 3fbc f2bc 060c 243c b3ca 6d3c 4e5f af3c
00000320: 9c90 7ebc 7360 7e3c adfb d53c 8745 1b3c
00000330: 1b14 d43c ab9f 42bc b6b5 5f3a 2c23 12bc
00000340: 0f4d 893b a986 c93c 462c 793c cab2 c7bc
00000350: 8381 973c 6edb 903c 33fd 4a3c 6b42 673a
00000360: 64c5 653b c5a5 00bc c642 163b 04e6 393c
00000370: 1ffb c8bc cbaf aebb f640 c13b 7167 8fbc
00000380: 8086 e539 7a11 79bc 51f5 663b 2959 7b3c
00000390: 7313 e1bc 38d8 cc3c f1c6 acbb 54f0 92bc
000003a0: 92e2 4a3c a26f 143c 7aff 7b3c 3ed2 a33b
000003b0: 6f49 323c 0db8 bc3b 8c74 58bc 14dd 573b
000003c0: bd0e a6bb 053a f9bc 31b0 6cb8 6c19 443c
000003d0: 44d2 43bc 74a1 b6bc b5b7 a6ba 7f82 71bc
000003e0: fe8b 9b3c 73a1 8d3c e1b4 953c 8c24 7d3c
000003f0: 681d f13c 51d7 18bc 93a8 af3c 4c30 d03c

fc3_adv.bias f4 [19]
-0.040557854 0.028223416 0.039977536 -0.10426501 0.040908296 0.023394538 -0.053592674 -0.028256416
-0.017887209 0.04172237 0.059791304 0.015300103 -0.0062835263 -0.025715098 0.039658036 0.028092975
-0.0063287592 -0.025237381 0.16961482
00000000: fe1f 26bd cb34 e73c 7cbf 233d e588 d5bd
00000010: 758f 273d e7a5 bf3c fe83 5bbd 007a e7bc
00000020: 3288 92bc 13e5 2a3d bae7 743d 49ad 7a3c
00000030: 0ae6 cdbb 78a8 d2bc 7770 223d 3d23 e63c
00000040: 7b61 cfbb a0be cebc 82af 2d3e

fc3_v.weight f4 [1, 1152]
0.013361128 0.015155281 0.024507824 0.006972483 -0.020608025 0.002474157 -0.00017924554 0.017077895
0.032409202 -0.015729897 -0.02597482 0.045397416 -0.025614016 -0.042061996 0.017336572 0.008122318
0.013488884 0.0054553747 -0.016450437 0.00198827 0.0026687055 0.007745972 0.004094957 0.0028710812
0.02984113 -0.0010380817 0.013486322 0.018219573 -0.0020805749 -0.0034527455 -0.0027137336 0.03191639
0.0064676716 -0.007284004 0.024360253 0.013388895 -0.008273315 -0.0007568604 -0.0071395137 -0.020005267
0.030250287 0.016997075 -0.03188442 -0.017301863 -0.02086899 -0.004542199 0.002825679 -0.011889469
0.002661578 -0.016679676 -0.0097912215 0.013948341 0.02611771 0.018459175 -0.023308085 0.041272227
-0.016204035 -0.0006637746 0.017342994 -0.019702576 -0.006008201 -0.022029035 -0.019893024 -0.05079583
-0.008558108 0.015142262 -0.007610182 0.016416261 -0.007388728 0.023676172 -0.032644678 -0.002755465
-0.018609064 -0.007652888 0.009694351 0.0011253913 -0.02460842 -0.044818368 -0.007874127 -0.019513598
0.011613815 0.0016512591 -0.012612369 0.0065478105 -0.02017802 -0.010657998 0.023172412 -0.00037385977
0.017829657 0.027084915 0.03168083 0.025007278 0.025844116 0.0041889874 -0.006414959 -0.015069873
0.007402323 0.0015798546 0.009205252 0.0018368308 -0.010812216 -0.0026035055 -0.0180024 0.02970486
0.02186512 0.012519349 0.0059564365 0.028339589 0.015214298 -0.02724351 -0.00037374822 -0.00065771036
-0.008741228 -0.014513674 0.012075444 -0.0134884 0.008417186 0.0033823198 -0.015689539 0.033067126
0.007471206 -0.0028506005 -0.013071844 4.1650674e-05 -0.018088806 -0.034379616 0.01135414 -0.059205562
-0.008489663 0.013533019 -0.0026905467 -0.0066128247 0.014739305 -0.009183029 0.015500986 -0.007073202
-0.0077788453 0.008101927 -0.0040489295 -0.013831622 0.017638488 0.002084381 -0.009811678 0.006487078
-0.017251251 0.009631778 0.008121083 0.013944808 0.009122291 0.007502677 -0.007515914 -0.008328586
0.020071907 0.033612795 -0.018988984 0.00046504466 0.012684122 0.0196167 -0.021733291 -0.0051608523
0.005894415 -0.004551072 -0.008774373 -0.015365731 0.024275115 -0.009991623 0.02736317 -0.017905558
-0.011299595 -0.0090735275 -0.015783569 -0.024119906 -0.0077812 0.0065486934 -0.0010056407 -0.00068772846
0.012710359 -0.019561855 -0.00026149568 0.0088845175 -0.022291416 0.013694605 0.006063868 0.0359786
-0.025637906 -0.024566866 -0.0043865307 0.0073252884 0.0048406175 -0.027029438 0.012615595 -0.041601237
0.03043069 0.014418433 -0.008089444 0.013198131 0.0018906842 0.017946264 0.014339806 -0.009563877
0.024168035 -0.0025926805 -0.0002889967 -0.027772598 -0.011337687 0.000858273 -0.013545171 -0.004465411
0.01357439 -0.002855198 0.017223801 0.00082180527 0.0070736636 -0.009527711 -0.0282647 0.011024538
-0.01910331 0.020952974 0.0072788848 -0.004914429 -0.025693817 -0.021555258 0.024194043 -0.006476787
0.012066267 -0.0144002875 0.019458901 0.0194247 -0.0056863204 -0.008526154 -0.009327171 0.0058073723
0.02508997 0.018806284 -0.020462941 -0.0058917357 -0.0064946637 0.0012012909 0.009675203 0.022784157
0.0031325265 0.023079894 -0.026113342 -0.01773473 -0.0113680195 -0.010985384 0.023268176 0.07022429
0.012370086 -0.022854539 -0.014467367 0.024132779 0.0044740806 -0.0013862026 -0.023434315 -0.031167308
00000000: a2e8 5a3c db4d 783c a2c4 c83c 6d79 e43b
00000010: 29d2 a8bc 7725 223b dcf3 3bb9 f1e6 8b3c
00000020: 83bf 043d fcdb 80bc 25c9 d4bc a4f2 393d
00000030: 7cd4 d1bc 3349 2cbd 6d05 8e3c 7913 053c
00000040: 7b00 5d3c 00c3 b23b 11c3 86bc a34d 023b
00000050: 73e5 2e3b ecd1 fd3b fd2e 863b c028 3c3b
00000060: 6375 f43c 3e10 88ba bcf5 5c3c 3741 953c
00000070: 415a 08bb 7547 62bb e5d8 31bb c3ba 023d
00000080: c3ee d33b a7ae eebb 278f c73c 195d 5b3c
00000090: cc8c 07bc 0b68 46ba 95f2 e9bb 16e2 a3bc
000000a0: 73cf f73c 733d 8b3c 3d99 02bd a3bc 8dbc
000000b0: 72f5 aabc bad6 94bb 072f 393b 0ccc 42bc
000000c0: de6d 2e3b d1a3 88bc 5c6b 20bc 9587 643c
000000d0: cff4 d53c b237 973c 99f0 bebc 110d 293d
000000e0: 53be 84bc 2901 2eba e512 8e3c 4c67 a1bc
000000f0: 71e0 c4bb 3c76 b4bc b2f6 a2bc 4a0f 50bd
00000100: 4e37 0cbc 4017 783c d55e f9bb 657b 863c
00000110: 251d f2bb 88f4 c13c 6db6 05bd 0895 34bb
00000120: 0972 98bc 14c5 fabb 0ed5 1e3c de81 933a
00000130: 9997 c9bc 7793 37bd 7b02 01bc fbda 9fbc
00000140: df47 3e3c 106f d83a 1ca4 4ebc 048f d63b
00000150: 604c a5bc e29e 2ebc 12d4 bd3c 9c02 c4b9
00000160: 800f 923c 2fe1 dd3c c2c3 013d 10dc cc3c
00000170: 0ab7 d33c c643 893b 9434 d2bb a1e7 76bc
00000180: 308f f23b 2013 cf3a a0d1 163c d0c1 f03a
00000190: b925 31bc 939f 2abb c579 93bc 9b57 f33c
000001a0: 7b1e b33c f51d 4d3c 362e c33b 6d28 e83c
000001b0: 6445 793c c82d dfbc a3f3 c3b9 326a 2cba
000001c0: 5e37 0fbc c3ca 6dbc 15d8 453c 73fe 5cbc
000001d0: 3de8 093c e9a9 5d3b 5987 80bc 6571 073d
000001e0: 05d1 f43b 24d1 3abb 4a2b 56bc 12b2 2e38
000001f0: fa2e 94bc a4d1 0cbd b706 3a3c 8881 72bd
00000200: 3a18 0bbc 99b9 5d3c e253 30bb 65b0 d8bb
00000210: 207d 713c 6a74 16bc d9f7 7d3c 52c6 e7bb
00000220: afe5 febb f2bd 043c e2ac 84bb 079e 62bc
00000230: 977e 903c 1c9a 083b 29c1 20bc 8e91 d43b
00000240: 7f52 8dbc 9bce 1d3c 4a0e 053c c478 643c
00000250: a975 153c 04d9 f53b 0e48 f6bb 9f74 08bc
00000260: d76d a43c 92ad 093d c98e 9bbc 3dd1 f339
00000270: 10d1 4f3c 34b3 a03c 040a b2bc 5e1c a9bb
00000280: f025 c13b 2921 95bb 63c2 0fbc 8cc0 7bbc
00000290: 9bdc c63c e8b3 23bc ba28 e03c adae 92bc
000002a0: f021 39bc 22a9 14bc 8b4c 81bc 1c97 c5bc
000002b0: 70f9 febb 6c96 d63b b4cf 83ba ad48 34ba
000002c0: 1c3f 503c 2f40 a0bc 5b19 89b9 5e90 113c
000002d0: 7d9c b6bc 565f 603c 69b3 c63b 4c5e 133d
000002e0: 9606 d2bc 7440 c9bc e3bc 8fbb f908 f03b
000002f0: 0b9e 9e3b d76c ddbc a4b1 4e3c 0f66 2abd
00000300: c849 f93c 4b3b 6c3c 9689 04bc f93c 583c
00000310: d6d0 f73a 0b04 933c 81f1 6a3c cfb1 1cbc
00000320: 0bfc c53c f6e9 29bb 7b84 97b9 5c83 e3bc
00000330: b5c1 39bc bafd 603a 91ec 5dbc 9552 92bb
00000340: 1e67 5e3c 461e 3bbb ee18 8d3c 6b6e 573a
00000350: 31ca e73b 1e1a 1cbc 5f8b e7bc 44a0 343c
00000360: 8b7e 9cbc 92a5 ab3c b683 ee3b 3809 a1bb
00000370: d77b d2bc a794 b0bc 9632 c63c 3a3b d4bb
00000380: 98b1 453c 2fef 6bbc 4668 9f3c 8c20 9f3c
00000390: 5054 babb 48b1 0bbc fed0 18bc c54b be3b
000003a0: 7b89 cd3c a30f 9a3c e6a1 a7bc 760f c1bb
000003b0: 30d1 d4bb a274 9d3a be84 1e3c d7a5 ba3c
000003c0: 134b 4d3b 0c12 bd3c a6eb d5bc 6d48 91bc
000003d0: ee40 3abc 0afc 33bc e79c be3c c1d1 8f3d
000003e0: e7ab 4a3c 7139 bbbc 8908 6dbc 1bb2 c53c
000003f0: 4f9b 923b 3eb1 b5ba 52f9 bfbc 9552 ffbc
