models/model_2.pt (torch, 98887 bytes, 9 tensors)

query.weight f4 [64, 4]
0.023367018 -0.078446895 0.24945952 0.009819863 0.37643504 0.3243148 -0.14665994 -0.20147528
-0.45378044 -0.10411386 0.3517748 0.22595571 0.07728597 -0.025711903 0.053165223 0.10370376
0.084394045 -0.52558666 -0.15312134 -0.5546733 -0.12990098 0.26343375 0.06849796 -0.44579515
0.568418 0.29375398 0.40723953 0.41336295 0.32609108 -0.1078824 -0.06762233 -0.2168831
-0.42104873 -0.2488401 0.42304567 0.0081747975 0.30983382 0.36307263 0.022524992 0.44433752
0.5743866 -0.1768045 -0.36752275 0.38362598 -0.29803976 -0.18488723 -0.08494948 -0.4962497
-0.139462 -0.29353228 -0.20868796 -0.36166427 0.22045228 0.16472083 0.42678308 -0.4566108
0.36612955 0.31304356 -0.3792878 0.39833957 0.028869983 -0.31920385 -0.19503187 0.2980901
-0.27729142 0.37398675 0.43841663 -0.19104019 0.32720128 -0.44471276 -0.33639517 -0.22403924
0.31071284 -0.03684052 -0.2898773 -0.33374274 0.3610162 0.40249398 0.07502705 0.13106968
-0.23778379 0.41291595 -0.41379723 0.27110282 -0.17104965 -0.24366829 0.15245233 0.3559402
0.13426957 0.01349168 -0.067963466 0.27118507 -0.3016916 0.56695193 -0.13322853 -0.09914341
-0.21044275 0.38151872 -0.052567262 0.19217749 0.49957716 -0.39412066 0.15598574 0.18298328
0.33983096 0.05307809 0.2500783 0.43151882 0.37594104 -0.22603375 -0.50907284 -0.27838576
0.5443684 0.33964902 -0.16990994 0.047690436 0.22697954 0.07208673 0.4510374 0.1904818
0.3153416 -0.22785482 -0.14652531 0.41682604 -0.22545356 -0.22486976 -0.42117622 -0.18220612
0.12888555 -0.2830278 -0.1761501 0.14944005 0.08938581 0.31170878 0.15622428 0.01389398
-0.3505126 0.36245742 -0.104441516 -0.359401 0.22787313 0.13472527 -0.43691662 -0.10615141
0.36386722 0.080544345 0.06200556 0.14691637 -0.39735654 -0.25989544 0.0019099744 -0.07622126
0.3397986 -0.12307296 0.4550234 -0.14223878 0.18863334 -0.20684998 -0.29390472 -0.19342759
-0.1903035 -0.118423946 -0.4379179 -0.4291967 0.13957052 0.15257637 -0.28236765 -0.3392584
0.006649197 -0.35660377 0.23934177 0.047648136 0.1360472 0.22047186 -0.4361351 -0.5628908
0.23550084 -0.023801427 -0.0447485 0.3979986 -0.13711655 -0.37675285 -0.43532583 0.01840752
0.1872529 -0.37803137 0.039914694 0.3201926 -0.37600696 -0.2955763 0.18741496 0.44743901
-0.1449397 0.05213675 -0.48211968 -0.3206792 -0.3702576 -0.40186253 -0.3253596 -0.046172827
0.08228662 0.37455398 -0.0852581 0.20667858 0.13486989 -0.15360941 -0.20118983 0.019870324
0.07137509 0.003520415 -0.29397804 0.0588943 0.09819803 0.316386 -0.19280367 -0.40482634
0.38547188 0.42314112 -0.2645201 0.46751666 0.25519258 -0.29067814 -0.235181 -0.32966933
0.032815617 -0.040672217 -0.424801 0.35911676 0.39694968 0.057587896 0.3151401 0.030484559
-0.22489843 0.14218672 0.0589019 -0.29305172 -0.014092801 -0.19487405 -0.37572223 0.06359407
-0.23538929 0.09572505 -0.44762293 -0.40605983 -0.24531016 -0.51967895 0.3062432 0.082080305
-0.23669058 0.002725773 -0.09423095 -0.32159165 0.37786236 -0.540332 0.28297746 0.11326939
00000000: 306c bf3c c4a8 a0bd 5172 7f3e 7ee3 203c
00000010: 18bc c03e 970c a63e 062e 16be 894f 4ebe
00000020: e955 e8be a639 d5bd d41b b43e ef60 673e
00000030: 1b48 9e3d c5a1 d2bc c7c3 593d a362 d43d
00000040: c9d6 ac3d d98c 06bf d7cb 1cbe 12ff 0dbf
00000050: c304 05be cae0 863e a948 8c3d 433f e4be
00000060: d883 113f ec66 963e b381 d03e 4fa4 d33e
00000070: 69f5 a63e 73f1 dcbd 937d 8abd 9a16 5ebe
00000080: b393 d7be f0cf 7ebe 7199 d83e 96ef 053c
00000090: 8aa2 9e3e a8e4 b93e 5586 b83c 3580 e33e
000000a0: 000b 133f 3d0c 35be f12b bcbe a06a c43e
000000b0: ab98 98be 1453 3dbe fef9 adbd 7114 febe
000000c0: 20cf 0ebe dd49 96be 4cb2 55be 0f2c b9be
000000d0: 3ebe 613e 94ac 283e 5083 da3e e4c8 e9be
000000e0: 5575 bb3e 3f47 a03e 0332 c2be 2af3 cb3e
000000f0: be80 ec3c b06e a3be 6fb6 47be 449f 983e
00000100: 24f9 8dbe 317b bf3e 2578 e03e 0aa0 43be
00000110: ed86 a73e 64b1 e3be fd3b acbe 8b6a 65be
00000120: c115 9f3e 16e6 16bd cc6a 94be 54e0 aabe
00000130: 1ed7 b83e b113 ce3e c8a7 993d 2137 063e
00000140: 987d 73be b869 d33e 3bdd d3be fdcd 8a3e
00000150: a427 2fbe 2e84 79be 771c 1c3e cb3d b63e
00000160: f67d 093e 350c 5d3c 6e30 8bbd c5d8 8a3e
00000170: 5277 9abe c323 113f 0f6d 08be b30b cbbd
00000180: 4e7e 57be 6c56 c33e c550 57bd 2dca 443e
00000190: 94c8 ff3e 2fca c9be baba 1f3e f85f 3b3e
000001a0: 53fe ad3e 6968 593d 430a 803e 09f0 dc3e
000001b0: 587b c03e 6475 67be 9952 02bf 9488 8ebe
000001c0: ba5b 0b3f 7ae6 ad3e dffc 2dbe 0c57 433d
000001d0: 536d 683e 35a2 933d 60ee e63e a90d 433e
000001e0: 7474 a13e c652 69be bb0a 16be 396a d53e
000001f0: 4cdd 66be 4244 66be 69a4 d7be 3e94 3abe
00000200: 93fa 033e 05e9 90be b160 34be d006 193e
00000210: e80f b73d 4b98 9f3e 42f9 1f3e 93a3 633c
00000220: 6376 b3be 0594 b93e 6fe5 d5bd 6803 b8be
00000230: 9357 693e 6cf5 093e 89b3 dfbe e965 d9bd
00000240: ce4c ba3e 6ff4 a43d 8bf9 7d3d 3f71 163e
00000250: 5172 cbbe 0411 85be 1b58 fa3a e419 9cbd
00000260: 15fa ad3e ad0d fcbd d4f8 e83e 0ba7 11be
00000270: 1929 413e 7bd0 53be ae7a 96be e211 46be
00000280: ecde 42be 4188 f2bd c636 e0be abbf dbbe
00000290: 93eb 0e3e fb3c 1c3e 7e92 90be 47b3 adbe
000002a0: 82e1 d93b c594 b6be 0216 753e b12a 433d
000002b0: f54f 0b3e 60c3 613e 1a4d dfbe 9d19 10bf
000002c0: 2227 713e 36fb c2bc 344a 37bd 79c6 cb3e
000002d0: 4868 0cbe c0e5 c0be 07e3 debe 5ecb 963c
000002e0: 39bf 3f3e 548d c1be 977d 233d 49f0 a33e
000002f0: fc83 c0be c755 97be b5e9 3f3e ba16 e53e
00000300: 136b 14be 588d 553d 64d8 f6be 1030 a4be
00000310: 6792 bdbe edc0 cdbe 8995 a6be b81f 3dbd
00000320: e385 a83d 8ac5 bf3e cc9b aebd 8da3 533e
00000330: 551b 0a3e c94b 1dbe b504 4ebe 17c7 a23c
00000340: 1a2d 923d c3b6 663b 4a84 96be 263b 713d
00000350: 0c1c c93d 59fd a13e 536e 45be 6645 cfbe
00000360: 925c c53e f4a5 d83e 2e6f 87be 585e ef3e
00000370: 9aa8 823e c4d3 94be 4ad3 70be 6bca a8be
00000380: ab69 063d e997 26bd 847f d9be 27de b73e
00000390: fd3c cb3e 49e1 6b3d 0b5a a13e c1ba f93c
000003a0: c64b 66be 6599 113e 1e43 713d e00a 96be
000003b0: 7ee5 66bc 108d 47be aa5e c0be 9c3d 823d
000003c0: e409 71be 7f0b c43d d52e e5be 13e7 cfbe
000003d0: 9632 7bbe ae09 05bf e9cb 9c3e b819 a83d
000003e0: 045f 72be e2a2 323b 28fc c0bd a9a7 a4be
000003f0: 2d77 c13e 3353 0abf 6ce2 903e c8f9 e73d

query.bias f4 [64]
-0.548079 -0.43919823 0.14271297 -0.12611353 -0.19319269 -0.24993798 -0.14873883 0.34315127
-0.024794163 -0.24069184 -0.43311775 -0.18486238 0.51998913 -0.0512701 -0.18479459 -0.2414807
-0.068289876 -0.25644132 -0.47277936 -0.50162774 0.49660888 -0.3848471 0.06939452 0.2505955
-0.50617296 0.33466497 -0.37461114 0.24454229 0.41364506 0.28468332 0.22466418 -0.19559386
-0.16583492 0.28624788 0.161024 0.15362142 -0.1286365 -0.1734308 -0.2692898 -0.06185592
-0.39637378 0.455152 -0.39519447 0.0018144486 0.08581024 -0.34454963 0.15794758 0.4247098
-0.42693114 0.0031027105 -0.09334891 0.48946017 -0.45902294 0.33546457 -0.5066968 -0.004891401
0.09941818 -0.24810472 0.14857765 -0.44920105 0.41594216 -0.4429363 0.32154426 -0.09551439
00000000: e84e 0cbf 97de e0be 5923 123e e823 01be
00000010: 4ed4 45be beef 7fbe fe4e 18be 86b1 af3e
00000020: 211d cbbc ec77 76be 9cc1 ddbe 904c 3dbe
00000030: 021e 053f 9900 52bd cb3a 3dbe b746 77be
00000040: 90db 8bbd 474c 83be 2310 f2be ad6a 00bf
00000050: 8543 fe3e ae0a c5be b71e 8e3d 0e4e 803e
00000060: 8d94 01bf 3559 ab3e 08cd bfbe 4b69 7a3e
00000070: 49c9 d33e 03c2 913e 5e0e 663e c249 48be
00000080: a1d0 29be 158f 923e 7ae3 243e ef4e 1d3e
00000090: 49b9 03be d897 31be 5ae0 89be a25c 7dbd
000000a0: 81f1 cabe af09 e93e ee56 cabe cbd2 ed3a
000000b0: 47bd af3d cf68 b0be 03bd 213e 9073 d93e
000000c0: b896 dabe d856 4b3b b72d bfbd 869a fa3e
000000d0: 0e05 ebbe 03c2 ab3e e2b6 01bf 0c48 a0bb
000000e0: c29b cb3d 2a0f 7ebe bd24 183e aefd e5be
000000f0: 5ff6 d43e 8cc8 e2be 73a1 a43e 0c9d c3bd

key.weight f4 [64, 4]
0.36674762 -0.40186396 0.26097497 -0.1250542 0.11801027 0.49123782 -0.07915099 -0.39994317
0.24833088 0.11363108 0.06671194 0.4527416 0.046490464 -0.44955078 0.07493902 -0.41906282
0.48856664 -0.043268636 0.44343674 -0.20615622 -0.10708139 0.17002508 0.18045212 -0.1622525
-0.5164477 0.4241006 -0.05530199 0.2892892 0.41743168 -0.2949656 -0.22234575 0.3201045
-0.18180007 -0.40141904 0.40592763 -0.33066735 0.08302033 -0.4006302 0.24059398 -0.31028447
-0.39155343 0.2233973 -0.42453614 -0.19653255 0.3343352 -0.08715387 -0.46722117 0.38395092
-0.03219551 0.120987274 -0.31719244 -0.3505139 0.22543739 0.449623 0.42468837 -0.20312688
-0.28061885 -0.18569507 0.0987608 -0.118409455 -0.14614998 0.47418708 -0.32529923 -0.60894334
0.2533963 -0.11813853 0.38464049 0.4179883 0.3679886 0.23533809 0.5118783 -0.43948334
-0.3317269 -0.29108766 -0.25434873 0.17625321 0.2528207 -0.38264433 0.0097420635 0.39404732
0.12933265 0.17472257 0.04113482 0.46154615 0.49985328 -0.49025258 0.28683132 0.40755805
0.4134787 0.21677816 0.0128544355 0.5087307 -0.035963565 -0.30761513 -0.25425974 0.27581093
0.2004853 -0.0070506674 0.38393274 0.34599498 -0.10203241 -0.090734646 -0.2523264 0.025795143
-0.08743136 0.2715783 -0.22372837 -0.033723306 0.33199355 0.010914385 0.29991046 0.30851543
-0.2568603 0.14012097 0.024740502 0.118406534 -0.41554967 -0.34456325 -0.43825787 -0.4482248
-0.06061057 -0.09992364 0.15724556 0.37398353 0.06317075 -0.37313694 -0.018965093 0.42005345
0.09238839 0.3119917 -0.048630334 0.019378994 -0.48794094 0.40434822 -0.3210479 -0.35191414
0.057372045 -0.29502767 0.2327971 0.090193555 -0.5034066 -0.04608091 0.50256544 -0.18341154
0.37712136 0.45006946 0.18991438 0.52052826 -0.076328106 -0.43471888 0.22919711 0.36144552
0.2530217 0.3132948 0.28071377 -0.4193404 0.35454044 0.0074300016 0.2687348 0.24037452
0.47651333 0.19814333 0.111600876 0.3100218 0.045276213 0.013209648 0.21799986 0.20030111
-0.4023744 -0.13569245 0.26674685 0.1690819 0.043088067 0.26586127 0.3096599 0.39418992
0.04335119 0.20364675 -0.08342624 0.46184748 -0.36727867 -0.08086557 0.2452153 -0.38339803
0.37878555 -0.005082571 -0.14293313 -0.33349267 0.55120605 -0.3307595 -0.27265355 0.018285438
0.3196554 -0.0321786 -0.3973023 0.23240021 0.35932133 0.17130741 -0.15200146 -0.42828438
-0.35801923 -0.02433212 0.2339174 0.61654586 -0.24147178 0.19325957 -0.14494096 -0.32166085
-0.3497695 -0.45597565 0.16328877 0.029380789 0.22539195 -0.23943107 0.31333995 0.09142703
-0.2977515 -0.43302312 0.4770475 0.08599258 -0.42842436 -0.07923307 -0.46680883 -0.24615373
-0.396675 -0.071587846 -0.47652733 -0.025312267 0.034516823 0.4473273 -0.28120655 0.0058333315
0.07204339 -0.31493172 -0.18174398 -0.17726639 0.22127493 -0.17286395 0.38654366 -0.26136217
-0.35282075 -0.45144945 -0.09523636 -0.3141977 0.12420575 0.4760545 0.46439344 0.26249576
-0.12253038 -0.3963253 0.15115331 0.34060615 0.41608426 -0.14796133 -0.2809812 -0.50017214
00000000: 58c6 bb3e 1dc1 cdbe 839e 853e 350e 00be
00000010: 5eaf f13d 8683 fb3e ea19 a2bd 5ac5 ccbe
00000020: 734a 7e3e 69b7 e83d 45a0 883d bfcd e73e
00000030: c96c 3e3d 852b e6be a179 993d 678f d6be
00000040: 6825 fa3e 743a 31bd 240a e33e 9e1a 53be
00000050: 7d4d dbbd 0e1b 2e3e 71c8 383e 8525 26be
00000060: eb35 04bf b723 d93e 5784 62bd b71d 943e
00000070: 9bb9 d53e bb05 97be 9bae 63be bde4 a33e
00000080: cc29 3abe cc86 cdbe bfd5 cf3e 3b4d a9be
00000090: 9006 aa3d 671f cdbe 455e 763e 9bdd 9ebe
000000a0: b179 c8be 43c2 643e cd5c d9be d43f 49be
000000b0: fc2d ab3e ba7d b2bd 9d37 efbe 3795 c43e
000000c0: 70df 03bd 2dc8 f73d 0c67 a2be 8f76 b3be
000000d0: 0fd9 663e fc34 e63e c170 d93e 7e00 50be
000000e0: 46ad 8fbe d926 3ebe 1a43 ca3d a880 f2bd
000000f0: 57a8 15be a6c8 f23e 9f8d a6be b6e3 1bbf
00000100: 29bd 813e 9df2 f1bd 99ef c43e 9002 d63e
00000110: 0069 bc3e 78fc 703e 750a 033f f603 e1be
00000120: 1cd8 a9be 7109 95be ff39 82be b97b 343e
00000130: b771 813e f5e9 c3be 2d9d 1f3c 92c0 c93e
00000140: c76f 043e 79ea 323e fc7c 283d c74f ec3e
00000150: c5ec ff3e 6302 fbbe 8edb 923e 73ab d03e
00000160: 7bb3 d33e 18fb 5d3e 699b 523c 2d3c 023f
00000170: 884e 13bd bb7f 9dbe 552e 82be 1737 8d3e
00000180: 054c 4d3e 4909 e7bb d592 c43e 4126 b13e
00000190: 5ef6 d0bd 16d3 b9bd ed30 81be 5650 d33c
000001a0: 360f b3bd 500c 8b3e 0d19 65be 7321 0abd
000001b0: 0ffb a93e 40d2 323c dd8d 993e bcf5 9d3e
000001c0: 3183 83be df7b 0f3e 98ac ca3c 207f f23d
000001d0: edc2 d4be 986a b0be 5663 e0be b97d e5be
000001e0: ca42 78bd c4a4 ccbd fb04 213e c57a bf3e
000001f0: ab5f 813d ce0b bfbe af5c 9bbc 3f11 d73e
00000200: 2036 bd3d 60bd 9f3e 9a30 47bd b2c0 9e3c
00000210: 65d3 f9be bb06 cf3e 6460 a4be 172e b4be
00000220: f3fe 6a3d de0d 97be 5d62 6e3e 66b7 b83d
00000230: 41df 00bf 56bf 3cbd 21a8 003f 3cd0 3bbe
00000240: 0d16 c13e 816f e63e ea78 423e 5741 053f
00000250: e951 9cbd 7993 debe a6b2 6a3e 630f b93e
00000260: 0f8c 813e 2d68 a03e b7b9 8f3e c9b3 d6be
00000270: 5386 b53e 5f77 f33b 9c97 893e bd24 763e
00000280: 8ef9 f33e 16e6 4a3e 008f e43d 2dbb 9e3e
00000290: 8d73 393d 486d 583c 5b3b 5f3e bc1b 4d3e
000002a0: 0404 cebe f6f2 0abe 0b93 883e ce23 2d3e
000002b0: 1d7d 303d f81e 883e be8b 9e3e 43d3 c93e
000002c0: 0491 313d c688 503e 60db aabd 4677 ec3e
000002d0: f30b bcbe d99c a5bd b819 7b3e bf4c c4be
000002e0: 2ef0 c13e b28b a6bb 105d 12be 8dbf aabe
000002f0: d71b 0d3f 4f59 a9be 3f99 8bbe 58cb 953c
00000300: dfa9 a33e b5cd 03bd 356b cbbe 52fa 6d3e
00000310: f7f8 b73e 366b 2f3e 45a6 1bbe 1748 dbbe
00000320: 4c4e b7be 2754 c7bc 0b88 6f3e f3d5 1d3f
00000330: 6144 77be d6e5 453e 676b 14be bbb0 a4be
00000340: fd14 b3be a475 e9be 2c35 273e fbaf f03c
00000350: 26cd 663e 6b2d 75be 186e a03e 183e bb3d
00000360: e272 98be 35b5 ddbe 923f f43e e11c b03d
00000370: 705a dbbe f344 a2bd 9101 efbe b90f 7cbe
00000380: fc18 cbbe a69c 92bd 64fb f3be ac5b cfbc
00000390: 8361 0d3d 1508 e53e 4efa 8fbe 8825 bf3b
000003a0: 7c8b 933d bb3e a1be 181b 3abe 5285 35be
000003b0: e595 623e 3f03 31be 0de9 c53e 43d1 85be
000003c0: eca4 b4be 6224 e7be 480b c3bd 85de a0be
000003d0: 965f fe3d 6abd f33e fac4 ed3e d865 863e
000003e0: 35f1 fabd 26eb cabe efc7 1a3e ee63 ae3e
000003f0: ff08 d53e 2d83 17be c5dc 8fbe 480b 00bf

key.bias f4 [64]
0.22911994 0.5659094 0.22946805 -0.051407 0.24890845 -0.23844011 0.23212425 0.38114306
0.16012576 -0.036065225 0.5258091 0.22680065 -0.002298639 -0.23348601 0.46906498 0.4620109
0.32755047 0.32989186 0.5062269 0.29159582 0.0340102 -0.5028985 -0.36968783 -0.3042601
-0.4717012 0.3792362 -0.3667448 -0.391204 -0.27258047 -0.097047806 0.5336807 -0.46681657
0.2933924 -0.100559995 -0.15982519 -0.03188371 -0.2982977 0.29736328 -0.29011008 0.49055305
-0.2878454 -0.3352267 -0.47554666 0.200244 -0.27779534 -0.22757529 -0.31329915 0.40670964
-0.3752271 -0.43599904 0.10253298 -0.11470051 -0.08434305 0.11168655 -0.40769723 -0.08529109
0.30931607 0.104078144 -0.04366856 0.3090854 -0.29864338 0.12572163 -0.05661079 0.21044332
00000000: 6b9e 6a3e 70df 103f acf9 6a3e 2590 52bd
00000010: dbe1 7e3e a529 74be fbb1 6d3e 2f25 c33e
00000020: 02f8 233e 21b9 13bd 6d9b 063f 6e3e 683e
00000030: c3a4 16bb f516 6fbe 4929 f03e b18c ec3e
00000040: b2b4 a73e 96e7 a83e 1698 013f 0c4c 953e
00000050: 484e 0b3d f5bd 00bf b947 bdbe fbc7 9bbe
00000060: d282 f1be 3f2b c23e f9c5 bbbe e44b c8be
00000070: ab8f 8bbe 00c1 c6bd 4c9f 083f 9502 efbe
00000080: 8737 963e 66f2 cdbd 37a9 23be 7e98 02bd
00000090: 7aba 98be 0040 983e 4f89 94be c529 fb3e
000000a0: 7960 93be d6a2 abbe da7a f3be c30c 4d3e
000000b0: 313b 8ebe 7f09 69be bf68 a0be 3f3c d03e
000000c0: c41d c0be 443b dfbe d0fc d13d 1ae8 eabd
000000d0: 0dbc acbd ebbb e43d b1bd d0be 18ad aebd
000000e0: ad5e 9e3e ec26 d53d cedd 32bd 7140 9e3e
000000f0: c9e7 98be 2cbd 003e b7e0 67bd 747e 573e

value.weight f4 [64, 4]
-0.036783326 0.042942908 0.47502932 -0.051852595 -0.1781457 0.19154969 0.2351002 0.10028566
-0.03837502 0.07615857 0.20279936 -0.21587606 -0.120078824 0.20099993 0.47471195 -0.39206168
-0.08659179 0.079586335 0.48077115 0.27357355 0.0061510834 0.021509895 0.33069515 -0.2179314
0.05586712 -0.05325194 0.17346834 -0.17113316 0.0076395473 -0.010744463 -0.04715937 0.06817338
0.10532531 -0.151957 -0.5819619 0.15910529 0.067679465 -0.050471652 -0.2504678 -0.19562285
0.123066984 -0.19756177 0.19555436 0.31902945 0.02354623 -0.032497562 -0.37663865 0.22394755
0.2518785 -0.311992 -0.35905984 -0.19450131 -0.012339845 -0.0029890926 0.21297927 0.05641335
-0.038874842 0.030122284 -0.34644026 0.10925353 0.021700347 -0.028738225 0.075576015 0.12846689
-0.070958495 0.08821816 0.4853049 0.12091211 -0.18916969 0.20952408 -0.44612822 0.4728794
0.02347711 0.0073912567 0.12502304 -0.25238556 0.0054352526 0.057612665 -0.42509806 -0.4451717
0.16261122 -0.22305882 0.043434113 0.1626341 0.14095381 -0.21481715 0.20723538 0.20742482
-0.005321325 0.021889772 -0.14462887 -0.060531106 0.09325501 -0.15764466 -0.26113954 0.4198746
0.22042124 -0.26038322 -0.72149056 -0.07664022 0.029880732 0.022411512 0.11316392 -0.42825988
-0.038583722 0.045980677 0.41011116 -0.14701958 -0.23090647 0.3153898 0.042303693 -0.23567508
-0.060121667 0.09380784 -0.13517019 -0.20589398 0.11736735 -0.22253993 0.5294176 0.5582747
0.029308429 -0.013212151 0.13156566 -0.27938136 0.23546468 -0.3038451 -0.42078364 -0.08546738
0.08030445 -0.07821147 -0.48347604 -0.19490954 0.09470536 -0.15123637 -0.5181641 0.34934318
0.10653622 -0.093764536 0.02525334 -0.27658713 -0.09553816 0.047916092 0.5269863 0.61930335
-0.03543583 0.030467864 -0.23108144 0.082364894 0.02429429 0.003318061 -0.3987552 -0.15972687
-0.107330576 0.15421715 -0.028401578 -0.02783917 -0.22122662 0.25463027 0.2190211 0.19835888
0.11715379 -0.14163487 0.034286592 -0.083225384 0.010069594 -0.028482651 0.24070223 0.13601808
0.11979177 -0.20001124 0.14978744 0.29767776 0.0072107217 -0.010032068 0.16717307 0.17631221
-0.079750255 0.10198627 0.49674606 0.015010086 0.08272468 -0.06307748 -0.36742094 -0.3985869
-0.20587502 0.25834104 0.68958706 -0.11063603 -0.0056818216 0.010050545 0.454635 -0.0945885
-0.12545893 0.19623281 0.48053426 -0.3973334 -0.16415544 0.21184546 0.12861168 -0.12532471
-0.16995741 0.22989896 0.38033634 0.0086055 0.06962992 -0.029065676 0.26133385 -0.5866934
0.08446598 -0.075869136 -0.28021482 -0.2667692 0.18629785 -0.1963691 -0.057933077 -0.303654
-0.20282461 0.26759395 -0.031373635 0.020439764 -0.00161422 0.042940997 -0.29641622 -0.26666248
0.055646583 -0.123683795 -0.24620616 0.5795449 -0.0069477153 0.02273681 0.46468878 -0.21102609
-0.0033149389 -0.004926303 0.030440612 0.025555518 0.12645702 -0.14977857 0.04435791 -0.11422366
0.047657788 -0.11278802 -0.17211543 0.41413426 0.019049449 -0.08623519 0.44342887 0.39265767
0.01662544 0.019303568 0.0057302504 -0.33794692 0.16733389 0.06725944 0.471503 -0.9139318
00000000: 1daa 16bd e7e4 2f3d 0b37 f33e 6363 54bd
00000010: d46b 36be 9a25 443e 1bbe 703e 9162 cd3d
00000020: 202f 1dbd 06f9 9b3d a3aa 4f3e 9d0e 5dbe
00000030: e3eb f5bd edd2 4d3e 720d f33e 4fbc c8be
00000040: 0957 b1bd 29fe a23d a327 f63e d511 8c3e
00000050: 078f c93b 8535 b03c e050 a93e 6929 5fbe
00000060: ecd4 643d b51e 5abd afa1 313e 883d 2fbe
00000070: 2b55 fa3b 8b09 30bc 2f2a 41bd 7c9e 8b3d
00000080: ccb4 d73d 9e9a 1bbe 75fb 14bf 7fec 223e
00000090: 889b 8a3d 5dbb 4ebd 513d 80be 5b51 48be
000000a0: 8b0a fc3d a24d 4abe 673f 483e d457 a33e
000000b0: 06e4 c03c 2a1c 05bd c8d6 c0be 8252 653e
000000c0: 38f6 803e 6abd 9fbe b1d6 b7be 5a2b 47be
000000d0: 102d 4abc a7e4 43bb 3d17 5a3e af11 673d
000000e0: 3a3b 1fbd 02c3 f63c 9e60 b1be 51c0 df3d
000000f0: edc4 b13c 6d6c ebbc 99c7 9a3d d38c 033e
00000100: b052 91bd b9ab b43d e279 f83e c5a0 f73d
00000110: b3b5 41be 7b8d 563e eb6a e4be 401d f23e
00000120: 1153 c03c 5b32 f23b 0a06 003e ae38 81be
00000130: 341a b23b 42fb 6b3d 74a6 d9be 8ced e3be
00000140: 8e83 263e 8869 64be f8e7 313d 8e89 263e
00000150: 3256 103e 07f9 5bbe 8335 543e 2c67 543e
00000160: 825e aebb 2e52 b33c 9719 14be 77ef 77bd
00000170: 7cfc be3d 9a6d 21be 15b4 85be cef9 d63e
00000180: 1bb6 613e f350 85be 9bb3 38bf 8cf5 9cbd
00000190: 70c8 f43c 5998 b73c 7cc2 e73d e144 dbbe
000001a0: f709 1ebd 3c56 3c3d 17fa d13e 4d8c 16be
000001b0: bf72 6cbe c67a a13e a346 2d3d cf54 71be
000001c0: 2342 76bd 531e c03d 0e6a 0abe dfd5 52be
000001d0: 4b5e f03d 82e1 63be e987 073f 17eb 0e3f
000001e0: 3b18 f03c c777 58bc 26b9 063e 130b 8fbe
000001f0: a71d 713e 9691 9bbe f470 d7be 8609 afbd
00000200: a976 a43d 562d a0bd 2c8a f7be 5e96 47be
00000210: e2f4 c13d b5dd 1abe 67a6 04bf 1cdd b23e
00000220: a92f da3d 9f07 c0bd 18e0 ce3c d49c 8dbe
00000230: 83a9 c3bd aa43 443d 93e8 063f aa8a 1e3f
00000240: 2925 11bd be97 f93c 9da0 6cbe edae a83d
00000250: d204 c73c d373 593b a429 ccbe 718f 23be
00000260: 22d0 dbbd 1aeb 1d3e 6daa e8bc f90e e4bc
00000270: 3b89 62be e65e 823e 1147 603e 971e 4b3e
00000280: 54ee ef3d bb08 11be 1970 0c3d 1272 aabd
00000290: f0fa 243c 7354 e9bc a57a 763e 5348 0b3e
000002a0: 6355 f53d bfcf 4cbe e161 193e 3869 983e
000002b0: eb47 ec3b 8b5d 24bc 6b2f 2b3e 308b 343e
000002c0: 1a54 a3bd 2dde d03d 8055 fe3e ddec 753c
000002d0: 8f6b a93d c42e 81bd 991e bcbe 9513 ccbe
000002e0: e7d0 52be 4745 843e c788 303f 2595 e2bd
000002f0: 932e babb 0bab 243c ebc5 e83e 9eb7 c1bd
00000300: 4e78 00be 41f1 483e 9608 f63e 496f cbbe
00000310: 5d18 28be 04ee 583e c8b2 033e 1f55 00be
00000320: 5109 2ebe a26a 6b3e 72bb c23e 15fe 0c3c
00000330: 229a 8e3d 241b eebc 8dcd 853e 8a31 16bf
00000340: 80fc ac3d 4761 9bbd 5178 8fbe f995 88be
00000350: ddc4 3e3e fb14 49be 3c4b 6dbd 8978 9bbe
00000360: 41b1 4fbe 1302 893e a481 00bd 4b71 a73c
00000370: 3c94 d3ba e6e2 2f3d dec3 97be fc87 88be
00000380: aced 633d ee4d fdbd 781d 7cbe 0e5d 143f
00000390: a9a9 e3bb 8c42 ba3c b0eb ed3e 3917 58be
000003a0: 723f 59bb d36c a1bb 975e f93c ce59 d13c
000003b0: f37d 013e 8e5f 19be a4b0 353d 18ee e9bd
000003c0: d034 433d 68fd e6bd 073f 30be 6809 d43e
000003d0: 970d 9c3c 139c b0bd 1c09 e33e 6d0a c93e
000003e0: 1332 883c 8422 9e3c d3c4 bb3b 6107 adbe
000003f0: 9359 2b3e 51bf 893d d768 f13e 6ff7 69bf

value.bias f4 [64]
-0.17657511 -0.40991372 -0.10887865 0.048439067 -0.083164506 -0.3097868 0.093759544 -0.17634507
-0.22286196 -0.6919869 -0.12045394 -0.6932799 0.4090338 0.80793536 0.5244327 -0.46983805
-0.50507957 -0.24702409 -0.63627684 -0.3704204 -0.23512618 0.15498413 -0.23366402 -0.30322415
-0.62322885 -0.6979435 0.38519135 0.45526883 0.42455798 0.027535241 0.06013151 0.17888948
-0.072094016 -0.20647207 -0.7113785 -0.0872339 0.28443778 -0.47306424 -0.45770696 0.5385552
-0.072561465 -0.20302674 0.20771067 -0.5030767 -0.19979574 0.17744936 0.7524405 0.09967133
0.40805805 0.82525676 -0.23599435 0.04761583 -0.13302556 -0.5521207 -0.40338865 -0.84993464
-0.3827856 0.055846613 -0.18653212 -0.21823293 0.12236989 0.5887521 0.10842884 -0.45206755
00000000: 1bd0 34be 36e0 d1be c5fb debd 0b68 463d
00000010: 2752 aabd 609c 9ebe 0105 c03d cd93 34be
00000020: ed35 64be 0e26 31bf 8eb0 f6bd cb7a 31bf
00000030: e16c d13e dad4 4e3f 3941 063f 9d8e f0be
00000040: e54c 01bf e2f3 7cbe 0ae3 22bf bea7 bdbe
00000050: ebc4 70be 29b4 1e3e 9f45 6fbe 3240 9bbe
00000060: ed8b 1fbf 6dac 32bf cd37 c53e ff18 e93e
00000070: aa5f d93e 9691 e13c 754c 763d ce2e 373e
00000080: 07a6 93bd 6a6d 53be e71c 36bf b0a7 b2bd
00000090: d4a1 913e 7a35 f2be 9158 eabe c1de 093f
000000a0: 1b9b 94bd 3ee6 4fbe 1bb2 543e a2c9 00bf
000000b0: 4197 4cbe 49b5 353e f19f 403f 7b20 cc3d
000000c0: fcec d03e 0744 533f 81a8 71be d108 433d
000000d0: da37 08be c857 0dbf f588 cebe 5195 59bf
000000e0: 79fc c3be 6bbf 643d 4702 3fbe 7478 5fbe
000000f0: 119d fa3d 75b8 163f f10f de3d 6675 e7be

fc3_adv.weight f4 [19, 1152]
0.007148456 -0.02221883 -0.0108486395 0.021193946 -9.89649e-05 0.010154903 -0.0092652785 0.01833157
-0.013340398 -0.016909307 -0.022659061 0.042215746 -0.012027866 -0.00071405334 0.023695042 -0.012243739
0.0038426244 0.015361193 0.014506219 -0.013480303 0.009727068 0.000955266 0.01282493 -0.004044954
0.0030041102 -0.015874807 -0.02704531 0.008936371 -0.008627235 -0.00338945 -0.01700606 0.009771996
-0.009512405 0.024931833 -0.026578477 -0.003748283 0.0014863615 0.012598851 -0.02327439 0.021764262
0.01847984 -0.02488284 0.02630126 -0.014631603 -0.015058455 0.0061746943 0.010654868 0.018924138
-0.026835361 0.0026470618 -0.013757829 0.0013768326 -0.005036442 0.02565483 -0.02922165 -0.016901087
-0.0109483665 0.0020940865 -0.014622725 0.0064985864 -0.014007038 -0.009094192 -0.022666039 -0.01964379
-0.016343143 -0.012072258 -0.016010437 0.023487816 -0.010510949 -0.013964826 -0.023186017 -0.022996863
0.021626825 0.015853737 -0.02015858 0.043546546 -1.0609514e-05 -0.0108730495 -0.009295772 -0.008201832
-0.013718798 0.0026384578 -0.0006660514 0.027209172 -0.006198912 0.022113021 0.00037170734 -0.009025625
-0.003740437 0.0057481686 -0.011335227 0.017572755 -0.02501991 0.01862777 -0.00923438 0.030595833
-0.0038938036 -0.0025042181 -0.011529766 -0.00041512024 -0.015857227 -0.008642788 -0.026347062 -0.0060792184
-0.01247949 0.008743597 -0.020307407 0.024414035 -0.03622424 -0.03386497 -0.00946003 0.020539349
0.026467599 0.024041701 -0.019652063 -0.005477696 -0.02900906 0.016966939 -0.010540936 -0.021579437
-0.022563571 -0.014400182 0.018526547 0.006059799 -0.021942982 -0.027137032 -0.007345072 -0.027033627
0.009107518 -0.01838219 0.020304082 -0.009893575 0.027245088 -0.0065913345 -0.019526418 0.008348871
0.033656552 -0.0031598613 0.0061881416 0.046265405 0.030173523 -0.024543636 0.017950049 -0.0076937173
0.0053202445 0.020263936 -0.015179527 0.0037590163 0.029010994 0.02076499 0.019811206 0.01755233
0.006040505 0.017649984 0.021110805 -0.019112067 0.023640964 -0.017026378 0.007324962 0.025278678
0.017147042 0.012798877 0.0007729222 -0.018004071 -0.011687124 0.02059204 0.023521744 0.008366293
-0.00031604088 0.0021459574 0.0070878374 -0.021729574 -0.032396864 0.022286111 -0.013471917 0.011435584
0.011616821 -0.0022653113 -0.0021711471 0.011448789 -0.016965773 -0.0040238816 -0.0023455285 0.023384003
-0.0115781985 0.00479947 -0.021374341 0.013546016 -0.019266926 -0.021372017 0.022226937 -0.003679945
-0.011877203 -0.013605641 0.008920788 0.016873844 -0.027563132 0.009676464 0.013879396 0.027546233
-0.021743018 0.0078056925 0.025511708 0.003246285 0.0238068 -0.0077179247 0.0048800283 -0.013678215
0.0072428766 0.025342848 0.011713586 -0.031579535 0.01861937 0.017342424 0.0072347843 0.0010759681
-0.00056333415 -0.013362738 0.009945555 0.011762693 -0.022157677 -0.004240614 0.005326376 -0.019074943
-0.0054930593 -0.01887157 -0.0007965753 0.020747662 -0.03260517 0.015315329 -0.004312932 -0.014087612
0.010100266 0.006306686 0.015702667 0.0014218178 0.009237599 0.00021809513 -0.010367133 0.01681903
-0.0046872436 -0.027047228 0.0028690489 0.009550052 -0.017951092 -0.026146136 -0.0006447633 -0.018199172
0.021834185 0.018323928 0.014710305 0.014824287 0.03281778 -0.0041280426 0.021104863 0.020650279
00000000: 983d ea3b 4404 b6bc 7ebe 31bc ed9e ad3c
00000010: 608b cfb8 c060 263c 65cd 17bc 172c 963c
00000020: af91 5abc 6385 8abc 7f9f b9bc 6bea 2c3d
00000030: 8710 45bc 4f2f 3bba 1b1c c23c f799 48bc
00000040: 8ad4 7b3b 83ad 7b3c 7eab 6d3c 7ddc 5cbc
00000050: 485e 1f3c d16a 7a3a a81f 523c 898b 84bb
00000060: 9be0 443b e20b 82bc 208e ddbc db69 123c
00000070: 3f59 0dbc 8921 5ebb 4b50 8bbc b91a 203c
00000080: ebd9 1bbc d83d cc3c 1bbb d9bc c1a5 75bb
00000090: 04d2 c23a 696b 4e3c efa9 bebc f74a b23c
000000a0: 0963 973c 19d7 cbbc bd75 d73c 64b9 6fbc
000000b0: bdb7 76bc 1755 ca3b c191 2e3c cb06 9b3c
000000c0: d5d5 dbbc 547a 2d3b 8468 61bc d676 b43a
000000d0: bd08 a5bb 142a d23c 3e62 efbc 2674 8abc
000000e0: c760 33bc f13c 093b 2794 6fbc 18f2 d43b
000000f0: c77d 65bc ceff 14bc 21ae b9bc 03ec a0bc
00000100: 0ee2 85bc b8ca 45bc 5228 83bc 8569 c03c
00000110: 1e36 2cbc bacc 64bc 9af0 bdbc eb63 bcbc
00000120: bd2a b13c b2df 813c 9b23 a5bc dd5d 323d
00000130: 84ff 31b7 e024 32bc 4b4d 18bc fa60 06bc
00000140: cfc4 60bc fae9 2c3b f499 2eba c5e5 de3c
00000150: 3e20 cbbb 5e26 b53c b7e1 c239 37e0 13bc
00000160: 1f22 75bb 225b bc3b 63b7 39bc bdf4 8f3c
00000170: 8ef6 ccbc 4499 983c cc4b 17bc 1da4 fa3c
00000180: 2f2f 7fbb cf1d 24bb 58e7 3cbc 7fa4 d9b9
00000190: 04e7 81bc 7b9a 0dbc cbd5 d7bc 2e34 c7bb
000001a0: c676 4cbc 4e41 0f3c b85b a6bc f1ff c73c
000001b0: de5f 14bd ffb5 0abd 3efe 1abc 2342 a83c
000001c0: 94d2 d83c 1af3 c43c 5dfd a0bc 3f7e b3bb
000001d0: 68a4 edbc 40fe 8a3c e4b3 2cbc 5cc7 b0bc
000001e0: 3dd7 b8bc beee 6bbc fcc4 973c 4791 c63b
000001f0: c5c1 b3bc 7b4e debc eeae f0bb a075 ddbc
00000200: b337 153c 3f96 96bc bf54 a63c a918 22bc
00000210: 1731 df3c 1ffc d7bb def5 9fbc b4c9 083c
00000220: 74db 093d ad15 4fbb e5c5 ca3b cb80 3d3d
00000230: 772e f73c bc0f c9bc fb0b 933c 941b fcbb
00000240: 7255 ae3b 8e00 a63c 8db3 78bc d459 763b
00000250: 77a8 ed3c 571b aa3c 1c4b a23c e7c9 8f3c
00000260: 6eef c53b b396 903c 91f0 ac3c e990 9cbc
00000270: b2aa c13c e77a 8bbc 3c06 f03b 3b15 cf3c
00000280: f477 8c3c 62b2 513c ee9d 4a3a 467d 93bc
00000290: 5a7b 3fbc a3b0 a83c acb0 c03c c712 093c
000002a0: 4ab2 a5b9 31a3 0c3b 1741 e83b 3802 b2bc
000002b0: 93b2 04bd 5d91 b63c 51b9 5cbc 515c 3b3c
000002c0: 7b54 3e3c 9e75 14bb ce49 0ebb b493 3b3c
000002d0: cefb 8abc c4da 83bb 70b7 19bb cf8f bf3c
000002e0: 7cb2 3dbc df44 9d3b 3e19 afbc 1cf0 5d3c
000002f0: acd5 9dbc 5e14 afbc 4415 b63c 3b2b 71bb
00000300: 9a98 42bc 32ea 5ebc 7f28 123c 043b 8a3c
00000310: 14cc e1bc 088a 1e3c 6866 633c a3a8 e13c
00000320: 6a1e b2bc e5c6 ff3b eefd d03c a0bf 543b
00000330: 7a06 c33c a5e6 fcbb a5e8 9f3b 981a 60bc
00000340: a755 ed3b ce9b cf3c 57ea 3f3c 8b59 01bd
00000350: a687 983c b311 8e3c c511 ed3b 8007 8d3a
00000360: b7ac 13ba 63ef 5abc aef2 223c 4fb8 403c
00000370: 0484 b5bc d9f4 8abb e188 ae3b 0e43 9cbc
00000380: 1fff b3bb 8d98 9abc 43d1 50ba 00f7 a93c
00000390: 008d 05bd 25ed 7a3c 7f53 8dbb bacf 66bc
000003a0: 967b 253c 51a8 ce3b e1a2 803c 4a5c ba3a
000003b0: 4c59 173c 77b0 6439 e8da 29bc 10c8 893c
000003c0: 7397 99bb 2692 ddbc a706 3c3b d277 1c3c
000003d0: 2b0e 93bc 6c30 d6bc 5505 29ba 6e16 95bc
000003e0: 9bdd b23c 101c 963c 7e03 713c 91e1 723c
000003f0: f06b 063d 8844 87bb 1be4 ac3c c62a a93c

fc3_adv.bias f4 [19]
-0.027060734 0.0035790873 0.011646756 -0.090949446 0.04861173 0.01361236 -0.02920615 -0.014223548
-0.026766917 0.05840446 0.040932357 0.0029782942 -0.017148009 -0.012004928 0.014653035 0.017751813
0.011733839 -0.005793263 0.16086856
00000000: 79ae ddbc 1f8f 6a3b 09d2 3e3c b443 babd
00000010: 181d 473d 6006 5f3c bc41 efbc e209 69bc
00000020: 4b46 dbbc 8439 6f3d b0a8 273d 7c2f 433b
00000030: fb79 8cbc 51b0 44bc 4913 703c 406c 913c
00000040: 4a3f 403c 6ad5 bdbb baba 243e

fc3_v.weight f4 [1, 1152]
0.007847114 0.0023395913 0.022996532 0.0055633443 -0.023247588 -0.0024159225 0.0006169146 0.01600439
0.034273643 -0.019849004 -0.025715312 0.04428097 -0.023705881 -0.021792639 0.021389047 0.0033294475
0.008693634 0.0054649664 -0.021935632 0.0007032544 0.0029019648 0.0084409015 0.0051637734 0.0030905197
0.025511602 -0.013395211 0.01282715 0.018134136 -0.0001864911 -0.0034218137 -0.0026643928 0.03371081
0.009287873 -0.006144129 0.018445192 0.011285123 -0.006087059 0.00070068956 -0.009638065 -0.017687209
0.030823527 0.013244673 -0.030988429 -0.025640303 -0.024187215 -0.0035924448 0.005587711 -0.014990029
0.00064155797 -0.012636696 -0.011387014 0.011953536 0.026983509 0.015095505 -0.0255355 0.0070578004
-0.0155976545 -0.002193493 0.017181152 -0.019609367 -0.0031457269 -0.01280527 -0.019633265 -0.021352183
-0.011767935 0.0037926894 -0.011440288 0.0120709315 -0.009893547 0.019491501 -0.029431757 -0.0034318524
-0.015090539 -0.011146031 0.014250971 -0.00066749996 -0.020099664 -0.02613581 -0.0064905835 -0.022491723
0.0065465253 -0.002610471 -0.017626133 0.000866467 -0.016597193 -0.005504351 0.020985214 0.0031375065
0.016838744 0.014704111 0.03210024 0.020905823 0.023688078 0.0099338135 -0.005973754 -0.010582686
0.009714174 0.0044345804 0.005744431 0.001119838 -0.010693452 -0.0043924022 -0.02383558 0.028603556
0.024556754 0.013136069 0.011406809 0.019111428 0.011158133 -0.0266034 -0.00089692225 -0.00052888115
-0.013762527 -0.0144460285 0.008033306 -0.01430762 0.009586686 0.003234392 -0.021392535 0.0012700553
0.011687219 -0.0036229151 -0.011604396 0.0031694542 -0.011560301 -0.021716602 0.009801683 -0.035120077
-0.013173781 0.002022311 -0.007016744 -0.011392255 0.01122433 -0.014984418 0.017879175 -0.0076054325
-0.0032789942 0.005353917 -0.00040622416 -0.013885502 0.022215337 0.020138446 -0.0066595487 0.0027250792
-0.023711478 0.006264412 0.0028645492 0.010430337 0.012181023 0.011731511 -0.008479057 -0.004776049
0.01954457 0.021015868 -0.020192005 -0.0031658458 0.01149362 0.023537636 -0.02153816 -0.000544113
0.009470647 -0.00087714166 -0.012499958 -0.0173635 0.025593834 -0.009600585 0.021961354 -0.01889673
-0.0088994205 -0.010258983 -0.011211328 -0.033982184 -0.012789208 0.008091932 -0.001977188 -0.0031785974
0.007270987 -0.019210843 -0.0045486125 0.0075014033 -0.02045859 0.013309589 0.00084441487 0.004919404
-0.021442916 -0.025936145 -0.0031534315 0.010062318 0.011334995 -0.01644127 0.011248643 -0.017435819
0.02679527 0.0038133773 -0.011129216 0.010010496 -0.00064153894 0.012491935 0.015927862 -0.010566885
0.027019707 -0.006676027 0.0019739824 -0.02957953 -0.008138083 0.019194515 -0.009815041 -0.009173513
0.008341332 -0.005359208 0.0117639825 -0.0029477212 0.008741927 -0.0066252407 -0.029404808 0.012853999
-0.021106778 0.008108201 0.007765777 -0.0070623592 -0.025516475 -0.018887393 0.024239395 -0.0032173959
0.014348257 -0.012474041 0.014590983 0.018451372 -0.0038783285 -0.009289892 -0.013521277 0.006162646
0.026409574 0.017341094 -0.017197039 -0.016156023 -0.0104580745 0.0018585913 0.0102928495 0.021358008
-0.0005908918 0.02491077 -0.02904078 -0.019495409 -0.010622929 -0.012604739 0.019399626 0.0396019
0.014990586 -0.023961762 -0.013223967 0.025698552 0.009618167 0.008867628 -0.024642935 -0.007735137
00000000: 2e91 003c d453 193b 3963 bc3c b74c b63b
00000010: ba71 bebc 7454 1ebb 70b8 213a a31b 833c
00000020: 8562 0c3d 619a a2bc eba8 d2bc f65f 353d
00000030: d632 c2bc 7a86 b2bc 1538 af3c dc32 5a3b
00000040: be6f 0e3c 7613 b33b 5bb2 b3bc 9b5a 383a
00000050: e42e 3e3b b54b 0a3c df34 a93b 518a 4a3b
00000060: b5fd d03c 9677 5bbc f728 523c 0a8e 943c
00000070: d38c 43b9 8240 60bb 189d 2ebb 5914 0a3d
00000080: 2a2c 183c b154 c9bb 5f1a 973c 3de5 383c
00000090: f475 c7bb 7bae 373a f9e8 1dbc c4e4 90bc
000000a0: 9f81 fc3c 2f00 593c 72db fdbc 9d0b d2bc
000000b0: 4424 c6bc 396f 6bbb 1e19 b73b bd98 75bc
000000c0: 3a2e 283a 250a 4fbc 9990 3abc c4d8 433c
000000d0: 850c dd3c 2353 773c d32f d1bc 1f45 e73b
000000e0: 4e8d 7fbc b5c0 0fbb 7dbf 8c3c d3a3 a0bc
000000f0: 8a28 4ebb 32cd 51bc f1d5 a0bc c6ea aebc
00000100: 4cce 40bc c58e 783b 0c70 3bbc 28c5 453c
00000110: 8b18 22bc a4ac 9f3c de1a f1bc eee8 60bb
00000120: 4f3e 77bc d89d 36bc e87c 693c 2afb 2eba
00000130: 0da8 a4bc c41a d6bc f6ae d4bb 9040 b8bc
00000140: 3c84 d63b 7014 2bbb ae64 90bc 9e23 633a
00000150: d6f6 87bc d85d b4bb 2fe9 ab3c a09e 4d3b
00000160: 68f1 893c 83e9 703c 8b7b 033d b042 ab3c
00000170: 800d c23c 6fc1 223c 7bbf c3bb 0163 2dbc
00000180: 3328 1f3c f54f 913b c83b bc3b 87c7 923a
00000190: 9733 2fbc 24ee 8fbb d642 c3bc 0152 ea3c
000001a0: 3f2b c93c ab38 573c a0e3 3a3c 928f 9c3c
000001b0: 9ad0 363c 60ef d9bc 6f1f 6bba 9da4 0aba
000001c0: 397c 61bc 09af 6cbc 219e 033c 826a 6abc
000001d0: 7a11 1d3c 18f8 533b 663f afbc fc77 a63a
000001e0: c07b 3f3c 6e6e 6dbb 5d20 3ebc 9eb6 4f3b
000001f0: 6b67 3dbc 04e7 b1bc 3d97 203c 12da 0fbd
00000200: d8d6 57bc c088 043b b7ec e5bb 95a6 3abc
00000210: 41e6 373c 3481 75bc 5977 923c fe36 f9bb
00000220: 65e4 56bb e96f af3b 7cfa d4b9 0480 63bc
00000230: f0fc b53c 62f9 a43c 5838 dabb 3e97 323b
00000240: 933e c2bc b245 cd3b 29bb 3b3b 01e4 2a3c
00000250: ea92 473c 8635 403c beeb 0abc 6780 9cbb
00000260: ef1b a03c 7829 ac3c b469 a5bc 147a 4fbb
00000270: bd4f 3c3c 00d2 c03c cc70 b0bc cea2 0eba
00000280: c62a 1b3c fbef 65ba a0cc 4cbc e63d 8ebc
00000290: 29aa d13c c64b 1dbc 4ce8 b33c 51cd 9abc
000002a0: e0ce 11bc 4b15 28bc b8af 37bc e730 0bbd
000002b0: d489 51bc 0694 043c b693 01bb 0450 50bb
000002c0: 7641 ee3b 0f60 9dbc 870c 95bb 55ce f53b
000002d0: c698 a7bc 7610 5a3c b95b 5d3a f432 a13b
000002e0: 0ea9 afbc 0a78 d4bc cda9 4ebb 6cdc 243c
000002f0: 6ab6 393c d8af 86bc 3a4c 383c 90d5 8ebc
00000300: c181 db3c dbe9 793b 5157 36bc 1003 243c
00000310: f32c 28ba f9aa 4c3c 267b 823c ba20 2dbc
00000320: 6f58 dd3c 93c2 dabb ee5d 013b c550 f2bc
00000330: 9855 05bc d13d 9d3c 44cf 20bc 814c 16bc
00000340: 15aa 083c 4c9c afbb b8bd 403c 8e2e 41bb
00000350: 4d3a 0f3c 8c18 d9bb 5ae2 f0bc 9499 523c
00000360: 1fe8 acbc 43d8 043c 0f78 fe3b 5d6b e7bb
00000370: ed07 d1bc bcb9 9abc b291 c63c f2da 52bb
00000380: f414 6b3c ec5f 4cbc 050f 6f3c 5527 973c
00000390: 8e2b 7ebb a234 18bc 5988 5dbc 06f0 c93b
000003a0: e458 d83c e90e 8e3c cee0 8cbc a359 84bc
000003b0: 5858 2bbc fa9b f33a 57a3 283c fdf6 ae3c
000003c0: 14e6 1aba ac11 cc3c eee6 edbc d6b4 9fbc
000003d0: cb0b 2ebc 1b84 4ebc f7eb 9e3c 9a35 223d
000003e0: 139b 753c 754b c4bc 56a9 58bc c585 d23c
000003f0: 8495 1d3c 8749 113c fbdf c9bc 0877 fdbb
