models/model_0.pt (torch, 98887 bytes, 9 tensors)

query.weight f4 [64, 4]
0	0x3cfa8f2c	0.030585848
1	0xbda9639b	-0.08270951
2	0x3e81eb49	0.2537482
3	0x3ba9fbdc	0.0051874947
4	0x3ebf71a9	0.37391403
5	0x3ea95fca	0.33080894
6	0xbe13cb3c	-0.14432997
7	0xbe457b7b	-0.19285385
8	0xbee76be5	-0.45199504
9	0xbdd91052	-0.10598816
10	0x3eb6efbf	0.35729787
11	0x3e65b83c	0.22433561
12	0x3da298fc	0.07939336
13	0xbceca8e1	-0.028889121
14	0x3d449f0f	0.048003253
15	0x3dce4fb4	0.10073796
16	0x3dadebb3	0.08492222
17	0xbf0721c2	-0.52785885
18	0xbe18fd97	-0.14940487
19	0xbf0d224e	-0.5513047
20	0xbe1a4a79	-0.15067472
21	0x3e88e53a	0.26737386
22	0x3d799c21	0.06093991
23	0xbee2c723	-0.44292554
24	0x3f0fdc65	0.5619567
25	0x3e97cac8	0.29646897
26	0x3ecea22e	0.40358108
27	0x3ed433e9	0.41445854
28	0x3ead33b3	0.33828506
29	0xbde33635	-0.110943235
30	0xbd7d1b20	-0.061793447
31	0xbe5e72dc	-0.21723503
32	0xbed84e24	-0.42247117
33	0xbe81ef40	-0.25377846
34	0x3ed5fce4	0.41794503
35	0x3b37af9c	0.0028028255
36	0x3e9fb2e0	0.31191158
37	0x3eb80afb	0.35945877
38	0x3c963d07	0.018339647
39	0x3ee1827e	0.4404487
40	0x3f11ca90	0.5694971
41	0xbe2e5b3d	-0.17026992
42	0xbebeccd7	-0.37265655
43	0x3ec7b58e	0.39005703
44	0xbe95789f	-0.2919359
45	0xbe417f3a	-0.1889619
46	0xbda2db47	-0.0795198
47	0xbefe759e	-0.4969911
48	0xbe15ba0f	-0.14621757
49	0xbe918457	-0.2842128
50	0xbe618d33	-0.2202652
51	0xbeb2d0dc	-0.34924972
52	0x3e5f2599	0.21791686
53	0x3e2db9d4	0.16965419
54	0x3edc48f2	0.43024403
55	0xbee6c329	-0.4507077
56	0x3ebb304d	0.36560288
57	0x3e9e74ab	0.30948386
58	0xbec4613b	-0.3835543
59	0x3ec9e235	0.39430395
60	0x3cb1184d	0.021618033
61	0xbea0183c	-0.3126849
62	0xbe514d02	-0.20439532
63	0x3e9d4837	0.30719158
64	0xbe8b3d3e	-0.27195162
65	0x3eb9b1e6	0.36268538
66	0x3ee3b2d4	0.44472373
67	0xbe4e7061	-0.20160057
68	0x3ea66f9f	0.32507035
69	0xbee0d38e	-0.43911403
70	0xbeaaa6c7	-0.33330366
71	0xbe5e1c5b	-0.21690504
72	0x3ea00614	0.31254637
73	0xbd2a0c77	-0.041515794
74	0xbe96312f	-0.293344
75	0xbeadbf0d	-0.33934823
76	0x3ec0bed8	0.37645602
77	0x3ecb8e07	0.39756796
78	0x3da9ee70	0.082974315
79	0x3e00a862	0.12564233
80	0xbe72661a	-0.23671761
81	0x3ed3d471	0.41373017
82	0xbed0afd6	-0.40759152
83	0x3e8a9478	0.27066398
84	0xbe23cafd	-0.15995403
85	0xbe7f645d	-0.2494063
86	0x3e22204f	0.15832637
87	0x3eb2f7de	0.34954733
88	0x3e0c2f66	0.13689956
89	0x3c754b67	0.014971591
90	0xbd80213a	-0.062563375
91	0x3e8bb1dd	0.27284136
92	0xbe97b2b6	-0.29628533
93	0x3f0fda41	0.56192404
94	0xbe09d2e8	-0.1345936
95	0xbdd8475f	-0.10560488
96	0xbe5581a7	-0.2085024
97	0x3eb9d281	0.36293414
98	0xbd3e5ca5	-0.04647507
99	0x3e3bfc41	0.18357946
100	0x3f01266d	0.5044926
101	0xbecafb66	-0.39644927
102	0x3e1c42b5	0.15259822
103	0x3e3940aa	0.18091074
104	0x3ead1c8c	0.33810842
105	0x3d726531	0.059178535
106	0x3e807cca	0.25095206
107	0x3ee14a09	0.44001797
108	0x3ec2660f	0.3796849
109	0xbe6fb5c1	-0.23409177
110	0xbf00eb44	-0.50358987
111	0xbe8fb7f6	-0.2807004
112	0x3f0a7520	0.5408497
113	0x3eaedd83	0.34153375
114	0xbe31a28c	-0.17347163
115	0x3d3bf0b5	0.045883853
116	0x3e68a2a7	0.22718297
117	0x3d9027b5	0.070388235
118	0x3ee46fa8	0.44616437
119	0x3e41b9bb	0.18918507
120	0x3ea43fc8	0.3207991
121	0xbe73710f	-0.23773597
122	0xbe13d4cb	-0.14436643
123	0x3ecf1541	0.40445903
124	0xbe604d6c	-0.21904534
125	0xbe6ceb4d	-0.23136635
126	0xbed61560	-0.41813183
127	0xbe4386e4	-0.19094425
128	0x3e031383	0.12800412
129	0xbe8e7556	-0.27823895
130	0xbe30538b	-0.17219369
131	0x3e1f1c6c	0.15538186
132	0x3da3976e	0.07987867
133	0x3ea29b53	0.31759128
134	0x3e1a4526	0.1506544
135	0x3ca45bbe	0.020063277
136	0xbeb2871f	-0.34868714
137	0x3eb67d48	0.35642457
138	0xbdd8cceb	-0.1058596
139	0xbebc5e27	-0.36790583
140	0x3e661c7e	0.22471806
141	0x3e089e9d	0.13341756
142	0xbee20786	-0.44146365
143	0xbde1cf2b	-0.11025842
144	0x3ebab633	0.36467132
145	0x3dab485e	0.08363412
146	0x3d898af6	0.06715958
147	0x3e1959ba	0.14975634
148	0xbeca5f04	-0.39525616
149	0xbe8899ba	-0.26679784
150	0xb95ed5ca	-0.00021251212
151	0xbdaf4fc5	-0.08560137
152	0x3eacc89e	0.3374681
153	0xbdef487c	-0.11683747
154	0x3eea6b40	0.4578495
155	0xbe09700a	-0.13421646
156	0x3e44a24a	0.19202533
157	0xbe5a8a52	-0.21341828
158	0xbe93d137	-0.28870556
159	0xbe474764	-0.19460827
160	0xbe41bca5	-0.18919618
161	0xbdef9774	-0.11698809
162	0xbeddcea9	-0.43321732
163	0xbedabe15	-0.42723146
164	0x3e158fbf	0.14605616
165	0x3e0ee81e	0.13955733
166	0xbe8c33b1	-0.27383187
167	0xbeb20b39	-0.34774187
168	0x3b9cf6d6	0.0047901673
169	0xbeba512a	-0.36390048
170	0x3e70ddc0	0.23522091
171	0x3d1eaf41	0.038741354
172	0x3e0a7847	0.13522445
173	0x3e63de05	0.22252662
174	0xbedbe914	-0.42951262
175	0xbf0fe0a7	-0.5620217
176	0x3e73f4f3	0.2382391
177	0xbcb07791	-0.021541389
178	0xbd1a0cc9	-0.03760985
179	0x3ecc7154	0.39930212
180	0xbe10b4c3	-0.14131455
181	0xbec0dba5	-0.37667575
182	0xbee1aaa9	-0.44075516
183	0x3c87709e	0.016533192
184	0x3e420a52	0.1894925
185	0xbebdb67c	-0.37053287
186	0x3d31a527	0.043370392
187	0x3ea9c10f	0.33155105
188	0xbebcd0cb	-0.36878046
189	0xbe9859bf	-0.2975597
190	0x3e44885f	0.19192646
191	0x3ee5f7c2	0.44915587
192	0xbe0fd63c	-0.14046568
193	0x3d4bc1e7	0.049745467
194	0xbef44b98	-0.47713923
195	0xbea36155	-0.31910196
196	0xbebdfc0f	-0.37106368
197	0xbec9e157	-0.39429733
198	0xbea52bb6	-0.3225991
199	0xbd14f63f	-0.03636765
200	0x3da99aec	0.08281502
201	0x3eba4466	0.3638031
202	0xbdb28f55	-0.08718745
203	0x3e45b8d2	0.19308785
204	0x3e0068c3	0.12539963
205	0xbe167242	-0.14692023
206	0xbe546860	-0.20742941
207	0x3cdd573e	0.02701914
208	0x3d93625e	0.071964964
209	0xbabf80b3	-0.0014610499
210	0xbe987655	-0.2977778
211	0x3d58f948	0.052972108
212	0x3ddac6fb	0.10682484
213	0x3e9f817f	0.31153485
214	0xbe3f22a3	-0.18665557
215	0xbed24bb4	-0.41073382
216	0x3ec57a7e	0.38570017
217	0x3ed5ab05	0.4173204
218	0xbe89407b	-0.26807007
219	0x3eebaab1	0.46028665
220	0x3e8243d6	0.2544238
221	0xbe936a2f	-0.2879195
222	0xbe75c4d7	-0.2400087
223	0xbea88e3c	-0.32921016
224	0x3d075f61	0.033049945
225	0xbd2473d6	-0.040149532
226	0xbedbaac3	-0.42903718
227	0x3eb7689e	0.35822004
228	0x3ecad1fc	0.3961333
229	0x3d81920e	0.06326686
230	0x3ea34c1e	0.3189401
231	0x3d1aa930	0.037759006
232	0xbe62bed4	-0.22143108
233	0x3e0e1eb8	0.13878906
234	0x3d5c000f	0.053710993
235	0xbe97dced	-0.2966074
236	0xbc85177f	-0.016246555
237	0xbe4c5534	-0.19954377
238	0xbebf53e5	-0.37368694
239	0x3d6f710d	0.058457423
240	0xbe718769	-0.23586811
241	0x3dbc0cd9	0.09182138
242	0xbee7a129	-0.45240143
243	0xbed2018f	-0.41016814
244	0xbe7e6e20	-0.24846697
245	0xbf045631	-0.5169402
246	0x3e9efe7d	0.31053534
247	0x3dad2800	0.08454895
248	0xbe70912e	-0.23492882
249	0xbb85c98f	-0.0040828655
250	0xbdc6363d	-0.09678314
251	0xbea958c7	-0.33075544
252	0x3ec37b11	0.3817983
253	0xbf08fc28	-0.5350976
254	0x3e926e12	0.28599602
255	0x3dffdd5b	0.12493392

query.bias f4 [64]
0	0xbf0d1304	-0.5510714
1	0xbee4330e	-0.44570202
2	0x3e1147b1	0.14187504
3	0xbe00661f	-0.12538956
4	0xbe4c25c1	-0.19936277
5	0xbe83d84d	-0.25750962
6	0xbe10885c	-0.14114517
7	0x3eb0182a	0.34393436
8	0xbcbaa448	-0.022783414
9	0xbe7544da	-0.23952046
10	0xbedcc1ea	-0.43116695
11	0xbe3efcf7	-0.18651186
12	0x3f00e7f7	0.5035395
13	0xbd664ba1	-0.05622447
14	0xbe38d441	-0.18049718
15	0xbe80d37a	-0.25161344
16	0xbd85a899	-0.06526298
17	0xbe86d79e	-0.26336378
18	0xbeeeeef3	-0.4666668
19	0xbefcc7d5	-0.4937121
20	0x3efe7f1e	0.49706358
21	0xbec43607	-0.3832247
22	0x3d8bcd34	0.06826249
23	0x3e83ae83	0.2571908
24	0xbf013aa4	-0.50480103
25	0x3eaeaa76	0.34114426
26	0xbec12117	-0.37720558
27	0x3e7a1bd9	0.24424686
28	0x3ed816c5	0.42204872
29	0x3e930387	0.2871363
30	0x3e757eb0	0.23974109
31	0xbe40214d	-0.18762703
32	0xbe2d86ee	-0.16946003
33	0x3e9256cd	0.2858185
34	0x3e290952	0.16507462
35	0x3e219240	0.15778446
36	0xbe0557ef	-0.13021825
37	0xbe2adc9d	-0.1668572
38	0xbe8d5ed1	-0.27611402
39	0xbd816a4a	-0.06319101
40	0xbecca13d	-0.39966765
41	0x3eef2d49	0.46714237
42	0xbec76c7e	-0.3894996
43	0x3b83661a	0.004009974
44	0x3db66148	0.08905274
45	0xbeafbb4f	-0.34322593
46	0x3e1a620e	0.15076467
47	0x3ed6f93f	0.41987035
48	0xbedc4fcf	-0.4302964
49	0xbbad6e9d	-0.005292727
50	0xbda8a940	-0.08235407
51	0x3ef969a7	0.4871342
52	0xbee87b91	-0.45406774
53	0x3ead1df6	0.3381192
54	0xbf004edf	-0.5012035
55	0xbafe19b4	-0.0019386322
56	0x3dd47d5e	0.103754744
57	0xbe80dd8f	-0.25169036
58	0x3e17133a	0.14753428
59	0xbeeba17f	-0.4602165
60	0x3ed63e1c	0.4184426
61	0xbee422ea	-0.44557887
62	0x3ea7e8a2	0.32794672
63	0xbdd6311a	-0.10458584

key.weight f4 [64, 4]
0	0x3ebd559a	0.3697937
1	0xbed07492	-0.40713936
2	0x3e8749a6	0.26423377
3	0xbde30ae9	-0.11086065
4	0x3df7ec67	0.12105637
5	0x3efb869f	0.49126145
6	0xbdb90e74	-0.0903596
7	0xbecb85e7	-0.39750597
8	0x3e7c7d44	0.2465716
9	0x3deeb97a	0.116564706
10	0x3d9acc4f	0.075585
11	0x3ee4ab55	0.44661966
12	0x3d4395d8	0.047750324
13	0xbee8c0d4	-0.45459616
14	0x3d8cd591	0.06876672
15	0xbed2f1cd	-0.41200104
16	0x3efa2c4b	0.48861918
17	0xbd476d67	-0.04868832
18	0x3ee915c6	0.45524424
19	0xbe3c2742	-0.1837435
20	0xbddd3bd7	-0.10802429
21	0x3e3541ce	0.17700884
22	0x3e3c0839	0.18362512
23	0xbe3a3c93	-0.1818717
24	0xbf036012	-0.51318467
25	0x3ed8b9d8	0.42329288
26	0xbd8763c8	-0.06610829
27	0x3e968753	0.2940012
28	0x3ed6e1dc	0.41969192
29	0xbe9966f9	-0.29961374
30	0xbe6af862	-0.22946313
31	0x3eaa7ba8	0.33297467
32	0xbe3cc8af	-0.1843593
33	0xbecd215f	-0.40064523
34	0x3ed54f5d	0.41662112
35	0xbeab3631	-0.33439782
36	0x3dafa9e7	0.08577328
37	0xbeccc505	-0.39994064
38	0x3e6aae20	0.22917986
39	0xbe9f1d6e	-0.3107714
40	0xbec759ae	-0.38935608
41	0x3e600e45	0.21880443
42	0xbeddcc6f	-0.43320033
43	0xbe3f05d9	-0.18654574
44	0x3ea9cfba	0.33166295
45	0xbdb169ac	-0.086627334
46	0xbee9c442	-0.45657545
47	0x3ec344c2	0.38138396
48	0xbd135727	-0.035971787
49	0x3df33d30	0.11876905
50	0xbe9bc383	-0.304226
51	0xbeb2363e	-0.34807009
52	0x3e6b0513	0.22951154
53	0x3ee615e9	0.4493859
54	0x3ed45656	0.4147212
55	0xbe491d13	-0.19639997
56	0xbe8ea2f0	-0.27858686
57	0xbe3e670e	-0.18594
58	0x3db380cf	0.08764803
59	0xbdf18cd9	-0.11794443
60	0xbe160a0c	-0.1465227
61	0x3ef092b8	0.46986938
62	0xbea1aea0	-0.3157854
63	0xbf170ed6	-0.5900701
64	0x3e8195cb	0.25309595
65	0xbde1c0f6	-0.110231325
66	0x3ec74bb9	0.3892496
67	0x3ecb7c9c	0.39743507
68	0x3ebd3f66	0.36962432
69	0x3e69d411	0.22834803
70	0x3f01fb02	0.5077363
71	0xbed48cc6	-0.41513652
72	0xbea924ff	-0.33036038
73	0xbe97a758	-0.2961986
74	0xbe862a54	-0.2620417
75	0x3e3ebf4f	0.18627666
76	0x3e82f32d	0.25576153
77	0xbec3b07b	-0.3822058
78	0xba8e46b9	-0.0010854817
79	0x3eca4546	0.39505976
80	0x3e02e09d	0.12780996
81	0x3e3aef97	0.18255459
82	0x3d2ddb85	0.04244568
83	0x3edf78d1	0.43646863
84	0x3eff314e	0.49842304
85	0xbefb2cfb	-0.49057755
86	0x3e98eb2a	0.29866916
87	0x3ed10c6d	0.40829793
88	0x3ed5bc6f	0.41745326
89	0x3e5d534e	0.2161381
90	0x3adaeebf	0.0016703232
91	0x3f04054d	0.5157059
92	0xbd1d5668	-0.03841248
93	0xbe9a14d4	-0.30094016
94	0xbe80b634	-0.2513901
95	0x3e7e58ea	0.24838606
96	0x3e4d859b	0.20070498
97	0x3aead884	0.001791731
98	0x3ec4fd8a	0.38474685
99	0x3ea3e48b	0.32010302
100	0xbdcce15b	-0.10003921
101	0xbdc7149e	-0.09720729
102	0xbe845f19	-0.25853804
103	0x3d2a6639	0.041601393
104	0xbdab29a2	-0.0835755
105	0x3e8a5a34	0.27021945
106	0xbe701546	-0.23445615
107	0xbcdc6c81	-0.026907207
108	0x3eaaee53	0.33384952
109	0x3ba954c7	0.005167577
110	0x3e960f9a	0.29308778
111	0x3ea63a91	0.32466558
112	0xbe824d66	-0.25449675
113	0x3e0e72aa	0.13910928
114	0x3c6c289b	0.014413978
115	0x3dfa344a	0.122170046
116	0xbed34a28	-0.41267514
117	0xbeb159ed	-0.3463892
118	0xbee4fb6c	-0.4472307
119	0xbee25b90	-0.44210482
120	0xbd70b0a5	-0.05876221
121	0xbdd89ee1	-0.10577179
122	0x3e19d4fb	0.15022652
123	0x3ec6b7dd	0.38812152
124	0x3d715492	0.058918543
125	0xbebf99d2	-0.37422043
126	0xbbe91d46	-0.0071140854
127	0x3ed59815	0.41717592
128	0x3dc1baf7	0.09459489
129	0x3e9c9b51	0.30587247
130	0xbd53b4ac	-0.051685974
131	0x3d49017b	0.049073678
132	0xbef8ba00	-0.48579407
133	0x3ed079b9	0.40717867
134	0xbeabc23a	-0.3354662
135	0xbeb7a060	-0.35864544
136	0x3d5ea3ee	0.054355554
137	0xbe93f410	-0.28897142
138	0x3e755f92	0.23962238
139	0x3d9384ec	0.07203087
140	0xbf00b36e	-0.5027379
141	0xbd451ff6	-0.048126183
142	0x3efc78b2	0.49310833
143	0xbe395fb0	-0.18102908
144	0x3ec2d13c	0.38050258
145	0x3ee5a5c3	0.4485303
146	0x3e382667	0.179834
147	0x3f071345	0.5276378
148	0xbda2b384	-0.07944396
149	0xbede6501	-0.43436435
150	0x3e75bb56	0.23997244
151	0x3eb71469	0.3575776
152	0x3e83655a	0.25663263
153	0x3e9e4cd5	0.30917993
154	0x3e8bb1b2	0.27284008
155	0xbecfd20d	-0.40589944
156	0x3eb68ceb	0.35654387
157	0x3a9886c3	0.0011636842
158	0x3e86dc8a	0.26340133
159	0x3e86b397	0.2630889
160	0x3ef267db	0.4734486
161	0x3e4b6997	0.19864498
162	0x3df92d59	0.121668525
163	0x3e9cdfff	0.30639645
164	0x3d42ea95	0.047586996
165	0x3c5af29e	0.0133635085
166	0x3e54f1ad	0.20795317
167	0x3e52469b	0.20534746
168	0xbecdacdb	-0.4017094
169	0xbe103cea	-0.14085737
170	0x3e9062ff	0.28200528
171	0x3e3fe841	0.18740942
172	0x3d364a39	0.044504378
173	0x3e889566	0.26676482
174	0x3e98809c	0.2978562
175	0x3ec95f5c	0.39330566
176	0x3d3fc778	0.046821088
177	0x3e4e5963	0.20151286
178	0xbdbfe20d	-0.09369288
179	0x3ef0efeb	0.47058043
180	0xbebe5a31	-0.37178186
181	0xbdaba98f	-0.0838195
182	0x3e843c13	0.25827083
183	0xbec384c1	-0.3818722
184	0x3ec33e09	0.38133267
185	0xbc3b0d33	-0.011416721
186	0xbe15cb08	-0.14628232
187	0xbe9de92f	-0.30841967
188	0x3f0c8b95	0.54900485
189	0xbea8d8e4	-0.32977974
190	0xbe8640be	-0.2622127
191	0x3c7c0f06	0.015384441
192	0x3ea2361b	0.31681904
193	0xbce7f06c	-0.028312884
194	0xbec7a77d	-0.3899497
195	0x3e636678	0.22207057
196	0x3eb67b5c	0.3564099
197	0x3e2f3667	0.17110597
198	0xbe1086d4	-0.14113933
199	0xbedc32ec	-0.430076
200	0xbeb6cbb5	-0.3570229
201	0xbcaf07ed	-0.021366084
202	0x3e60723e	0.2191858
203	0x3f1b7739	0.60728794
204	0xbe77507f	-0.241518
205	0x3e3d590b	0.18490998
206	0xbe198541	-0.14992239
207	0xbe9a26c6	-0.30107707
208	0xbeb3d34e	-0.3512215
209	0xbeec1aae	-0.46114105
210	0x3e1e5734	0.15462953
211	0x3ceb6b3f	0.028737662
212	0x3e681d34	0.2266739
213	0xbe73402e	-0.23754951
214	0x3e9b563f	0.30339238
215	0x3db02111	0.08600057
216	0xbe973573	-0.29532966
217	0xbedd78d5	-0.4325625
218	0x3eee4044	0.46533406
219	0x3daee8b8	0.08540481
220	0xbedb51c1	-0.4283581
221	0xbdb3ec4c	-0.087853044
222	0xbef0dd60	-0.47043896
223	0xbe657d3b	-0.22411053
224	0xbecdf556	-0.4022624
225	0xbda48986	-0.08034043
226	0xbef80ea8	-0.48448682
227	0xbd0606b7	-0.032721248
228	0x3d1bf227	0.03807273
229	0x3ee4067e	0.44536203
230	0xbe94f531	-0.29093316
231	0x3c661527	0.014043129
232	0x3d8c6ad7	0.068563156
233	0xbe9ee8be	-0.31036943
234	0xbe30dfc2	-0.17272857
235	0xbe442810	-0.19155908
236	0x3e5ec562	0.21754983
237	0xbe34e359	-0.17664851
238	0x3ecd6ea5	0.40123478
239	0xbe838068	-0.25683904
240	0xbeb6f98b	-0.3573726
241	0xbee5cc0b	-0.44882235
242	0xbdaf92b0	-0.085729
243	0xbea6cb42	-0.32576948
244	0x3dfbaa14	0.12288299
245	0x3ef30f0f	0.47472426
246	0x3ef3bc02	0.47604376
247	0x3e8893de	0.26675314
248	0xbe01836f	-0.12647794
249	0xbeca0c51	-0.39462522
250	0x3e25802f	0.1616218
251	0x3eaa729c	0.33290565
252	0x3ed64d41	0.41855815
253	0xbe1e8880	-0.15481758
254	0xbe920845	-0.28521934
255	0xbef4d35d	-0.47817507

key.bias f4 [64]
0	0x3e59484d	0.21218987
1	0x3f143c9a	0.5790497
2	0x3e6916c2	0.22762588
3	0xbd666d99	-0.056256864
4	0x3e5fb3d5	0.21845944
5	0xbe601472	-0.218828
6	0x3e7ae400	0.24501038
7	0x3ebde0c8	0.37085557
8	0x3e182077	0.14856134
9	0xbc8f0a15	-0.017460862
10	0x3f04d976	0.5189432
11	0x3e59a570	0.21254516
12	0xbcc6287c	-0.024189226
13	0xbe66dd8e	-0.22545454
14	0x3ef84b56	0.48494977
15	0x3ee023c0	0.43777275
16	0x3eb4dca0	0.35324574
17	0x3e9a5808	0.30145288
18	0x3efe09ae	0.4961676
19	0x3e9dbdab	0.30808768
20	0x3d829ef4	0.06377974
21	0xbf04bf42	-0.51854336
22	0xbeb93dc0	-0.36179924
23	0xbe8cd816	-0.2750861
24	0xbee2aa15	-0.44270387
25	0x3eb89a1e	0.36055082
26	0xbeb82b6f	-0.35970637
27	0xbed10b6c	-0.40829027
28	0xbe856fe7	-0.26061937
29	0xbdb71dcd	-0.08941231
30	0x3f051015	0.51977664
31	0xbef806f0	-0.48442793
32	0x3e8929e0	0.2678976
33	0xbd9df120	-0.077120066
34	0xbe0f2319	-0.13978232
35	0xbccad78e	-0.024760988
36	0xbe95cdc4	-0.2925855
37	0x3e91793f	0.28412816
38	0xbe9a00d3	-0.30078754
39	0x3eef85a5	0.4678165
40	0xbe9abb37	-0.3022096
41	0xbea6486d	-0.3247713
42	0xbf008393	-0.50200766
43	0x3e58ddfe	0.21178433
44	0xbe8c478f	-0.27398345
45	0xbe808546	-0.2510168
46	0xbead1412	-0.33804375
47	0x3ecb2edb	0.39684185
48	0xbebf80d6	-0.37402982
49	0xbee7cc39	-0.45272997
50	0x3e02009b	0.12695543
51	0xbe09e58a	-0.13466468
52	0xbdb36257	-0.08758991
53	0x3e05ae5c	0.13054794
54	0xbec74683	-0.38920984
55	0xbde640e7	-0.11242848
56	0x3e9dab93	0.30794963
57	0x3ddc3094	0.10751453
58	0xbd06bd88	-0.032895595
59	0x3e927f0d	0.28612557
60	0xbe9789da	-0.2959736
61	0x3dd568f9	0.104204126
62	0xbd77d42b	-0.060505074
63	0x3e3cc0c5	0.1843291

value.weight f4 [64, 4]
0	0xbd423d68	-0.047421843
1	0x3d39af7b	0.045333367
2	0x3f104da3	0.56368464
3	0xbd67560d	-0.05647855
4	0xbe5fbb8d	-0.21848889
5	0x3e265a46	0.16245374
6	0x3e4f78ae	0.2026088
7	0x3d99e549	0.07514436
8	0xbd558fd4	-0.05213912
9	0x3daef65a	0.085430816
10	0x3e79d465	0.24397428
11	0xbe7380c3	-0.23779587
12	0xbe239078	-0.15973079
13	0x3e73c0a4	0.23803955
14	0x3f03147a	0.5120312
15	0xbed7446a	-0.42044383
16	0xbde8819b	-0.11352845
17	0x3de7f887	0.113267
18	0x3ef7ad37	0.4837434
19	0x3eb3bf18	0.3510673
20	0x3aac4b10	0.0013144929
21	0x3c6e694b	0.014551471
22	0x3ec63ed7	0.38719818
23	0xbe89f59f	-0.26945207
24	0x3d78e2ca	0.060763158
25	0xbd968ac0	-0.07350683
26	0x3e4ea4d0	0.20180058
27	0xbe558ffd	-0.20855708
28	0x3c09bc30	0.008406684
29	0xbc9b9456	-0.01899163
30	0xbd353745	-0.044242162
31	0x3da94bdc	0.08266422
32	0x3e0fc0bb	0.14038365
33	0xbe3a85d1	-0.1821511
34	0xbf1ce59d	-0.6128786
35	0x3e2bf9ff	0.16794585
36	0x3da94677	0.08265393
37	0xbd839b34	-0.06426087
38	0xbe8582cb	-0.2607635
39	0xbe71241d	-0.23548932
40	0x3e1d7e46	0.153802
41	0xbe70289b	-0.2345299
42	0x3e7c9863	0.24667506
43	0x3ea31c6b	0.3185762
44	0x3cd6af65	0.026206682
45	0xbd185097	-0.03718623
46	0xbed7101a	-0.42004472
47	0x3e870e1d	0.26377955
48	0x3e916ef8	0.28404975
49	0xbebaa655	-0.36455026
50	0xbeb5fe72	-0.3554569
51	0xbe87018d	-0.2636837
52	0xbced41b3	-0.028961992
53	0xbca85675	-0.020549038
54	0x3e5176dd	0.20455499
55	0x3d264c30	0.0406
56	0xbd4d2132	-0.050080486
57	0x3d44deae	0.048063926
58	0xbebfa939	-0.37433794
59	0x3e2fd5ed	0.1717145
60	0x3cd7a1e3	0.02632231
61	0xbd1fdb7b	-0.039027672
62	0x3d5997e7	0.05312338
63	0x3e17b767	0.14816056
64	0xbdc35fc1	-0.09539748
65	0x3ddbcfda	0.10733004
66	0x3f077bfc	0.5292356
67	0x3e1f1d5f	0.15538548
68	0xbe4789d6	-0.19486174
69	0x3e7d2e7b	0.24724762
70	0xbf005912	-0.5013591
71	0x3f068f59	0.5256248
72	0x3d11c578	0.03558871
73	0x3c44da53	0.012014943
74	0x3e11c10e	0.14233801
75	0xbe8cd32d	-0.27504864
76	0x3bc21c9a	0.0059238197
77	0x3d7b82f0	0.06140417
78	0xbee23b7b	-0.44186005
79	0xbefa7a55	-0.48921457
80	0x3e49e61b	0.19716685
81	0xbe8d035d	-0.27541628
82	0x3dc7cdc6	0.09756045
83	0x3e0137d1	0.12618949
84	0x3e2c9680	0.16854286
85	0xbe760029	-0.24023499
86	0x3e747324	0.23872048
87	0x3e4d512b	0.20050494
88	0xbc24a611	-0.010049359
89	0x3cde5f3c	0.02714502
90	0xbe27f69f	-0.16402672
91	0xbd8d1679	-0.06889052
92	0x3debf1be	0.11520718
93	0xbe3a6c06	-0.1820527
94	0xbe94e770	-0.29082823
95	0x3ee664aa	0.44998676
96	0x3e762ac4	0.24039751
97	0xbe8f475e	-0.27984136
98	0xbf3c1c77	-0.73480934
99	0xbdc22d80	-0.09481335
100	0x3d07fef2	0.03320212
101	0x3c877eb7	0.016539915
102	0x3dfc01f6	0.123050615
103	0xbefcb028	-0.49353147
104	0xbd45d79c	-0.048301324
105	0x3d823c1d	0.06359122
106	0x3ef17f9d	0.47167674
107	0xbe391714	-0.1807521
108	0xbe82f411	-0.25576833
109	0x3eb884a2	0.3603869
110	0x3c796317	0.015221379
111	0xbe5cfd06	-0.21580896
112	0xbd967cea	-0.07348044
113	0x3deba142	0.11505367
114	0xbe28d7fe	-0.16488644
115	0xbe5ad0f5	-0.21368773
116	0x3e0d141b	0.13777201
117	0xbe73827a	-0.23780242
118	0x3f1184f2	0.56843483
119	0x3f1384a0	0.57624245
120	0x3d39d992	0.045373507
121	0xbc2ef857	-0.010679326
122	0x3e1f0ef5	0.1553305
123	0xbe9e564a	-0.30925208
124	0x3e9173ec	0.28408754
125	0xbeb8a4e4	-0.36063302
126	0xbecfa010	-0.40551805
127	0xbe23c0e9	-0.15991558
128	0x3dd21af8	0.1025905
129	0xbdcf31a9	-0.10116894
130	0xbf04aa1c	-0.51822066
131	0xbe7cc254	-0.24683505
132	0x3dfb5ada	0.12273188
133	0xbe3aed53	-0.18254595
134	0xbf16753d	-0.5877264
135	0x3ec424e6	0.383094
136	0x3dfad24a	0.12247141
137	0xbdf11142	-0.1177087
138	0x3d334160	0.04376352
139	0xbeb1e7f1	-0.3474727
140	0xbddc4613	-0.10755553
141	0x3d950cc8	0.072778285
142	0x3f0c8cf9	0.5490261
143	0x3f3817ba	0.71911204
144	0xbd479345	-0.04872443
145	0x3d54545a	0.051838256
146	0xbe88811d	-0.26661006
147	0x3e156cdd	0.1459231
148	0x3d0aab73	0.033854913
149	0xbb734162	-0.0037117829
150	0xbee3a122	-0.44458872
151	0xbe46aaf6	-0.19401154
152	0xbe0775c1	-0.13228513
153	0x3e3dc1e6	0.18530998
154	0xbdab6857	-0.083695106
155	0x3b28cfc7	0.002575861
156	0xbe7c726b	-0.24653022
157	0x3e94cda8	0.29063153
158	0x3e596170	0.21228576
159	0x3e874d88	0.2642634
160	0x3e15ebfd	0.14640804
161	0xbe3e1f67	-0.18566667
162	0x3d8f01c3	0.06982758
163	0xbe146308	-0.14490902
164	0x3c7ca96c	0.015421253
165	0xbd159fb6	-0.036529265
166	0x3e8acab0	0.27107763
167	0x3e1cc470	0.1530931
168	0x3e1903da	0.14942876
169	0xbe67088c	-0.22561854
170	0x3e234cce	0.15947267
171	0x3e9a36e4	0.30120003
172	0x3b095807	0.002095701
173	0xbc8b3d0f	-0.016996888
174	0x3e57c588	0.21071446
175	0x3e40246f	0.18763898
176	0xbdf451c3	-0.11929657
177	0x3e1087cb	0.14114301
178	0x3f04273b	0.5162236
179	0x3da3522c	0.079746574
180	0x3ddaee20	0.1068995
181	0xbdbdd41c	-0.09268972
182	0xbec884b1	-0.39163736
183	0xbf00477a	-0.50109065
184	0xbe6c07f0	-0.23049903
185	0x3e92fb52	0.28707367
186	0x3f3645de	0.7120036
187	0xbdc6ba0a	-0.09703453
188	0xbc2e5484	-0.010640267
189	0x3bd20c1b	0.0064101345
190	0x3f065ecb	0.5248839
191	0xbe0440de	-0.1291537
192	0xbe1a3737	-0.15060125
193	0x3e637e2a	0.22216097
194	0x3f01bdd8	0.50680304
195	0xbed51665	-0.41618648
196	0xbe3db661	-0.18526603
197	0x3e6dbe7f	0.232172
198	0x3de7fc46	0.11327414
199	0xbde6b062	-0.11264111
200	0xbe602555	-0.21889241
201	0x3e8f1206	0.27943438
202	0x3ec0892b	0.3760465
203	0x3d71b7de	0.05901324
204	0x3da41ea7	0.08013659
205	0xbd5c5596	-0.05379256
206	0x3e9684d5	0.29398218
207	0xbf3008d9	-0.687635
208	0x3dd72c11	0.10506452
209	0xbdd1d697	-0.10246008
210	0xbe92d45a	-0.28677636
211	0xbeb57550	-0.35441065
212	0x3e54925f	0.20758961
213	0xbe6cc492	-0.2312186
214	0xbd3fe368	-0.04684773
215	0xbec57fa1	-0.38573936
216	0xbe5eb307	-0.21747981
217	0x3e9d1577	0.3068044
218	0xbd988e9c	-0.074490756
219	0x3d6d5c9c	0.057949647
220	0x3c825772	0.015910838
221	0x3d8640d5	0.065553345
222	0xbe9387eb	-0.28814635
223	0xbe815e02	-0.25267035
224	0x3d8884d3	0.06665959
225	0xbe033b7e	-0.12815663
226	0xbe8a5bd6	-0.2702319
227	0x3f1d6cff	0.6149444
228	0x3cdf1462	0.027231399
229	0x3d742472	0.05960507
230	0x3f01ec25	0.5075095
231	0xbe3a9443	-0.1822062
232	0x3b748a3b	0.0037313837
233	0x3b6b82f5	0.003593621
234	0x3c857604	0.016291626
235	0x3d20e257	0.039278354
236	0x3e1fd5b9	0.15608872
237	0xbe3f76f1	-0.18697716
238	0x3d0c9007	0.034317043
239	0xbe3aef60	-0.18255377
240	0x3d82a6ca	0.06379469
241	0xbdf4c48f	-0.11951553
242	0xbe51a1bc	-0.20471853
243	0x3eed84d4	0.46390402
244	0x3c95a402	0.018266682
245	0xbdcb29b2	-0.09920062
246	0x3eef5146	0.46741694
247	0x3ed00a33	0.4063278
248	0x3caaa7eb	0.020832023
249	0x3bf51d83	0.0074803247
250	0x3d00b858	0.031425804
251	0xbee46553	-0.44608554
252	0x3e4377de	0.19088694
253	0x3db5f5a0	0.0888474
254	0x3efc58dc	0.49286544
255	0xbf69000e	-0.9101571

value.bias f4 [64]
0	0xbe196a75	-0.14982016
1	0xbedc9229	-0.4308026
2	0xbde57eae	-0.11205803
3	0x3d161393	0.03663976
4	0xbdc84738	-0.09779209
5	0xbe9ea490	-0.30984926
6	0x3dc90adc	0.098165244
7	0xbe37f93d	-0.1796617
8	0xbe584748	-0.21120942
9	0xbf2d6915	-0.6773847
10	0xbde00e99	-0.10940284
11	0xbf312203	-0.6919252
12	0x3ed7a8be	0.42120928
13	0x3f481614	0.7815869
14	0x3f05c60a	0.5225531
15	0xbef244aa	-0.47318012
16	0xbf02a820	-0.5103779
17	0xbe827bf3	-0.2548519
18	0xbf1e2e38	-0.61789274
19	0xbeb8614b	-0.3601173
20	0xbe607602	-0.21920016
21	0x3e215c15	0.15757783
22	0xbe75271b	-0.23940699
23	0xbe993fc9	-0.29931477
24	0xbf1aa45a	-0.6040703
25	0xbf2f739d	-0.68535787
26	0x3ec44728	0.38335538
27	0x3ee118fb	0.4396437
28	0x3ed7b377	0.42129108
29	0x3ca3acc4	0.019979842
30	0x3d99d378	0.075110376
31	0x3e4ad889	0.19809164
32	0xbd7585c5	-0.059942026
33	0xbe4bd27f	-0.19904517
34	0xbf31d402	-0.69464123
35	0xbdca091b	-0.09865018
36	0x3e91fe6d	0.28514424
37	0xbeed312e	-0.46326584
38	0xbef199f9	-0.47187784
39	0x3f059b1e	0.52189815
40	0xbd59187c	-0.053001866
41	0xbe54ea8d	-0.20792599
42	0x3e550e42	0.2080622
43	0xbf079f86	-0.5297779
44	0xbe55e811	-0.20889308
45	0x3e40e0d7	0.1883577
46	0x3f3c792f	0.7362241
47	0x3dc40ccc	0.09572753
48	0x3ece5035	0.40295568
49	0x3f4ef73d	0.80846006
50	0xbe86374d	-0.26214066
51	0x3d774fee	0.06037896
52	0xbdf81e3a	-0.1211514
53	0xbf095f3e	-0.53660953
54	0xbed0b855	-0.40765634
55	0xbf5259c0	-0.821682
56	0xbec5394c	-0.38520277
57	0x3db312ca	0.08743818
58	0xbe41ae7b	-0.18914215
59	0xbe5700f5	-0.20996459
60	0x3dff2095	0.124573864
61	0x3f13f339	0.57793003
62	0x3de43f93	0.11144938
63	0xbeed3a67	-0.4633362

fc3_adv.weight f4 [19, 1152]
0	0xbc49f11b	-0.01232555
1	0xbce32b70	-0.027730674
2	0xbca1e454	-0.019762196
3	0x3c62f571	0.013852463
4	0xbb98f343	-0.004667671
5	0xbc8cd0e8	-0.017189458
6	0xbc376b90	-0.0111950785
7	0xb9c1b3f1	-0.00036945895
8	0xbbcd6710	-0.0062683895
9	0xbcabf6e0	-0.020991743
10	0xbcd6dc76	-0.02622817
11	0x3d33a48a	0.04385809
12	0xbc282b22	-0.01026419
13	0x37bb7865	2.23482e-05
14	0x3d2e675f	0.04257905
15	0xbcc72303	-0.024308687
16	0xbc81fcf5	-0.01586769
17	0x3cb9539f	0.022622881
18	0x3c2077f0	0.00979422
19	0xbc87029c	-0.016480736
20	0xbad6dd87	-0.0016392925
21	0x3a6dd761	0.00090729265
22	0x3b720aec	0.003693278
23	0xbc0a67e7	-0.008447624
24	0x3b4a3c1e	0.0030858587
25	0xbcc19ca6	-0.023634266
26	0xbd2f4140	-0.042786837
27	0x3c5a0ce2	0.013308736
28	0x3c407687	0.011747009
29	0xbbba6f3c	-0.0056895297
30	0xbca59395	-0.020211974
31	0x3c232571	0.009957657
32	0xba7a5c19	-0.0009550467
33	0x3d1280bd	0.035767306
34	0xbd139a17	-0.036035623
35	0xbba0cde4	-0.0049073566
36	0x3cbf9bad	0.023389662
37	0x3cc0a491	0.023515971
38	0xbccee560	-0.025255859
39	0x3cce1cf7	0.025160296
40	0x3c874eb9	0.01651703
41	0xbd389744	-0.045066133
42	0x3cdd9f47	0.027053488
43	0xbd23d7cd	-0.040000726
44	0xbc841832	-0.016124818
45	0x3c291859	0.010320746
46	0x3c16c64b	0.00920255
47	0xbb0a672d	-0.0021118626
48	0xbcf655f3	-0.03007028
49	0x3c0f5085	0.008747225
50	0xbc91120a	-0.017708797
51	0xbbcbd66c	-0.0062206294
52	0xbbb33ea2	-0.005470113
53	0x3c98c22f	0.018647281
54	0xbce464f1	-0.027880164
55	0xbc8ef437	-0.017450435
56	0xbbafaca1	-0.005361155
57	0x3bb99401	0.0056633954
58	0xbc7fde27	-0.01561693
59	0x3bbe20c1	0.0058022444
60	0xba5d983b	-0.0008453165
61	0xbbfbf62a	-0.007689257
62	0xbce9add3	-0.028525269
63	0xbc528f5b	-0.012851561
64	0xbce77abc	-0.028256766
65	0xbc8cafff	-0.017173765
66	0xbcaa9fd1	-0.02082816
67	0x3ca2f642	0.019892816
68	0xbc7895b8	-0.0151724145
69	0xbd02147b	-0.031757813
70	0xbc9d3812	-0.019191775
71	0xbd35a71e	-0.04434883
72	0x3cc84299	0.024445819
73	0x3c3aa787	0.011392481
74	0xbcad6f8a	-0.02117135
75	0x3d0f37dd	0.034965385
76	0x3b9796fa	0.004626152
77	0xbbf672e5	-0.0075210207
78	0x3b10ee73	0.0022114783
79	0xbcb51c25	-0.022108147
80	0xbd037158	-0.032090515
81	0x3b0f5f97	0.0021877044
82	0xbb5d79d4	-0.003379454
83	0x3cbffb03	0.023435121
84	0xbc6fe488	-0.014641888
85	0x3ccfda6d	0.025372708
86	0xbc4217a2	-0.011846455
87	0xbc91f1fc	-0.017815582
88	0xbb9edbfc	-0.0048480015
89	0x3af08c4b	0.0018352357
90	0xbc9a9d5c	-0.018873863
91	0x3ca05abe	0.01957452
92	0xbb98ae2e	-0.0046594357
93	0x3c98d3e7	0.01865573
94	0xbc1c8a32	-0.009554433
95	0x3d06354a	0.032765664
96	0x3b57bced	0.0032919005
97	0x3b2e90bf	0.0026636568
98	0xbc900482	-0.017580274
99	0xbb365e52	-0.0027827215
100	0xbad13f02	-0.0015964212
101	0xbb18991e	-0.0023284624
102	0xbd046bfb	-0.03232954
103	0xbba0ba53	-0.004905024
104	0xbc211cf0	-0.009833559
105	0xbbda82fc	-0.0066684466
106	0xbc8e2d6b	-0.017355641
107	0xbb40a9bc	-0.0029398045
108	0xbd12c98b	-0.035836738
109	0xbce3a90a	-0.027790565
110	0xbc0c3f7d	-0.008560059
111	0x3c3ccc05	0.011523251
112	0x3ce2f643	0.027705317
113	0x3cf3a04e	0.029739525
114	0xbccc79e5	-0.024960468
115	0xbbb55beb	-0.005534639
116	0xbce5a314	-0.028031863
117	0x3c5d1c60	0.013495535
118	0xbc5c5f33	-0.013450432
119	0xbcc4541d	-0.02396589
120	0xbcc27605	-0.023737917
121	0xbc1931bf	-0.009350239
122	0x3c780b37	0.015139393
123	0x3c19e8a1	0.009393842
124	0xbc612e0f	-0.013743891
125	0xbcc15996	-0.023602288
126	0xbc0256aa	-0.007955233
127	0xbca989ab	-0.020695528
128	0xbb236ee5	-0.0024937924
129	0xbcbf11cc	-0.023323916
130	0x3c6ab2c3	0.014324847
131	0xbc6c8cb5	-0.014437844
132	0x3cc03a11	0.023465188
133	0xbcd5670e	-0.026050117
134	0xbc86d4ab	-0.01645883
135	0xbc4e0da4	-0.012576494
136	0x3d1693f4	0.036762193
137	0xbc0927c0	-0.008371294
138	0x3bbc70f5	0.00575077
139	0x3d1ebd94	0.038755015
140	0x3d0c854c	0.03430681
141	0xbcab9fe2	-0.020950262
142	0x3cf99446	0.03046621
143	0xbcaa2d75	-0.020773629
144	0xbc4e76a9	-0.012601533
145	0x3cabb397	0.020959659
146	0xbc97904d	-0.018501425
147	0xba869be3	-0.0010269847
148	0x3ca7d0c3	0.020485288
149	0x3cc5cd8e	0.024145868
150	0x3be43057	0.0069637704
151	0x3c239531	0.0099843005
152	0x3b96bbb1	0.0046000113
153	0x3c49ff1c	0.012328889
154	0x3c5713bc	0.013127264
155	0xbc8d4d7c	-0.017248861
156	0x3d309ada	0.043116428
157	0xbc84de1f	-0.016219197
158	0x3bd35904	0.0064498205
159	0x3cdd7795	0.02703456
160	0x3cc11615	0.0235701
161	0x3c9b6f84	0.018974073
162	0xbbce4cb7	-0.006295766
163	0xbc9cf3a8	-0.019159153
164	0x3b76d437	0.003766311
165	0x3cd55cf0	0.026045293
166	0x3c90985c	0.017650776
167	0x3c2727a7	0.010202325
168	0x3ada77c1	0.001666777
169	0xbc4e5d59	-0.012595498
170	0x3c2cf499	0.0105563635
171	0xbd46dc35	-0.04854985
172	0xbd011744	-0.03151633
173	0x3cdeb56e	0.027186122
174	0xbc4c3599	-0.012463951
175	0x3ad10a76	0.0015948552
176	0x3c452809	0.012033471
177	0x3b5f4b90	0.0034072138
178	0xbbedd058	-0.0072575025
179	0x3c1f8222	0.009735616
180	0xbc8ab566	-0.0169322
181	0xbc0914cf	-0.008366778
182	0xbba296de	-0.0049618324
183	0x3ca685d4	0.020327486
184	0xbc33d448	-0.010975905
185	0x3c1dbe70	0.009627923
186	0xbcc9c5e6	-0.024630498
187	0x3c84830b	0.016175767
188	0xbc1c65ca	-0.009545753
189	0xbc8afd9f	-0.01696664
190	0x3ca3dd1f	0.0200029
191	0x3b0f4d46	0.0021866127
192	0xbcc09c1a	-0.023511935
193	0xbc97e52c	-0.018541895
194	0x3b7ec8bd	0.0038876974
195	0x3c5a5280	0.013325334
196	0xbd01bbca	-0.03167323
197	0xbc1097b5	-0.008825232
198	0x3c8d4c3f	0.017248271
199	0x3bd2cacd	0.006432867
200	0xbc9d2159	-0.01918094
201	0x3b3d240b	0.0028860595
202	0x3cc7aeb2	0.024375293
203	0xbba0cdd5	-0.0049073496
204	0x3ce46b86	0.027883302
205	0xbb88b435	-0.004171873
206	0x3c8b20ae	0.016983356
207	0xbcdf2fa9	-0.027244406
208	0xbc2f411f	-0.010696678
209	0x3cd27894	0.025692262
210	0x3c0de390	0.008660212
211	0xbd12793f	-0.03576016
212	0x3c218b4d	0.009859872
213	0x3ca5677e	0.02019095
214	0xbba6990f	-0.005084164
215	0xbbf251f1	-0.007395022
216	0xbb0905f3	-0.0020908087
217	0xbc930d00	-0.017950535
218	0x3b35cee8	0.0027741734
219	0x3c668153	0.014068919
220	0xbb134f7a	-0.0022477792
221	0xbb8af716	-0.0042408807
222	0x3b99c80f	0.0046930383
223	0xbc8eb23f	-0.017418979
224	0x3a95dc24	0.0011433405
225	0xbc621593	-0.013799089
226	0xbbf43123	-0.0074521466
227	0x3c9b63fd	0.018968577
228	0xbc90d583	-0.017679935
229	0x3cad1e85	0.021132717
230	0xbc22afd2	-0.009929614
231	0xbc4a122e	-0.012333436
232	0x3c45ab84	0.012064818
233	0xbc16e224	-0.00920919
234	0x3c96f554	0.018427528
235	0xbcd1779c	-0.02556973
236	0x3c246ba6	0.010035431
237	0x3bb88c74	0.0056319777
238	0xbc14959b	-0.009068872
239	0x3bf23ed1	0.007392742
240	0xbb62072e	-0.0034489143
241	0xbcacd377	-0.021096928
242	0xbb0084fe	-0.001961052
243	0x3c0e6f00	0.008693457
244	0xbc8f97a6	-0.017528366
245	0xbcf78651	-0.030215414
246	0xbb49d8a2	-0.003079929
247	0xbcab2400	-0.02089119
248	0x3cad7b33	0.02117691
249	0x3cbe8595	0.023257056
250	0x3c3ac9f9	0.011400693
251	0x3c8f55cb	0.017496964
252	0x3d29a404	0.041416183
253	0xb97ff0fb	-0.00024408467
254	0x3ca1d1a6	0.019753288
255	0x3cdb1362	0.02674264

fc3_adv.bias f4 [19]
0	0x3b608432	0.0034258482
1	0xbc3ebc2b	-0.011641542
2	0x3c5a2fb9	0.013317042
3	0xbdaab7c7	-0.08335834
4	0x3cdb26a0	0.026751816
5	0x3d0a47dc	0.033759937
6	0xbc77c41e	-0.015122442
7	0x3c622683	0.013803127
8	0xbd566c7e	-0.05234956
9	0x3cde62d7	0.02714674
10	0x3cb5b128	0.022179201
11	0xbbcc9063	-0.006242798
12	0x3be045d0	0.00684426
13	0xbb8a8a37	-0.0042279023
14	0x382fa6b6	4.1878513e-05
15	0x3bb17aa6	0.005416232
16	0xbaaaeb74	-0.0013040141
17	0x3d21e4a0	0.039524674
18	0x3d774b42	0.060374506

fc3_v.weight f4 [1, 1152]
0	0x3c3f861d	0.01168969
1	0xbc6c37ad	-0.014417571
2	0x3cc621ea	0.024186093
3	0x3c00aed5	0.007854183
4	0xbc90386f	-0.017605035
5	0x3b9036e7	0.004401076
6	0xbb36c496	-0.002788817
7	0x3c8dd1f8	0.017312035
8	0x3cfe1c35	0.03101931
9	0xbcbf077a	-0.023318995
10	0xbcca7355	-0.024713198
11	0x3d1ef668	0.03880921
12	0xbcdc1535	-0.026865581
13	0xbd07739a	-0.03306923
14	0x3c8f9840	0.017528653
15	0x3c290811	0.010316865
16	0x3c763fa4	0.015029822
17	0x3c575296	0.013142249
18	0xbca5ac54	-0.020223774
19	0xbba80c10	-0.005128391
20	0x3b4fcf25	0.003170916
21	0x3c039d1e	0.008033065
22	0x3b716e6a	0.0036839494
23	0x3b793455	0.0038025577
24	0x3cb5437a	0.022126902
25	0xbc9a0736	-0.018802267
26	0x3c96e3b5	0.018419126
27	0x3c927286	0.017876875
28	0xbba2e97a	-0.00497168
29	0x39d4cf6d	0.00040590335
30	0x3a2b5d40	0.00065370277
31	0x3d0224c0	0.03177333
32	0x3b38061e	0.0028079818
33	0xbc10e639	-0.008843952
34	0x3c81913e	0.015816327
35	0x3c95e726	0.018298697
36	0xbc0f28d7	-0.008737764
37	0xbc2d41a0	-0.010574728
38	0xbbfdbf85	-0.007743778
39	0xbc62a12f	-0.0138323745
40	0x3cef39a2	0.029202286
41	0x3cab6b99	0.02092533
42	0xbcff91f3	-0.031197524
43	0xbc423958	-0.011854492
44	0xbca3b4c6	-0.01998366
45	0xbc052fe8	-0.0081290975
46	0x3c242f14	0.01002099
47	0xbb4ff572	-0.003173199
48	0x3b1207ee	0.0022282558
49	0xbc52c19f	-0.012863546
50	0xbc15e3c2	-0.00914854
51	0x3c23f98c	0.010008227
52	0x3cbb32d3	0.022851383
53	0x3c544b67	0.01295743
54	0xbcb3a978	-0.021931395
55	0x3c688258	0.014191233
56	0xbc52071d	-0.012819079
57	0x3c4dc170	0.012558326
58	0x3c8180b1	0.015808435
59	0xbcaa2f10	-0.020774394
60	0xbb926696	-0.0044677956
61	0xbc0b0096	-0.008484026
62	0xbcb1229b	-0.021622946
63	0x3cb72289	0.022355335
64	0xbc21a733	-0.009866524
65	0xbc4dec68	-0.012568571
66	0xbc29c2c7	-0.01036138
67	0x3c624610	0.0138106495
68	0xbbeac8be	-0.0071650436
69	0x3ccf1476	0.025278311
70	0xbd0a7c13	-0.033809733
71	0xbac45e3c	-0.0014981697
72	0xbc829132	-0.015938375
73	0xbc2ffd82	-0.010741593
74	0x3c4ca07a	0.0124894325
75	0x3a361349	0.0006945623
76	0xbcba7140	-0.02275908
77	0xbd254d4c	-0.04035692
78	0xbc10e13c	-0.008842763
79	0xbc8b6d97	-0.01702003
80	0x3c23eef6	0.010005703
81	0x3bd56227	0.006511945
82	0xbc71f683	-0.014768246
83	0x3b38bc34	0.002818835
84	0xbc8ae434	-0.016954519
85	0xbc0f3f1f	-0.008743077
86	0x3cc2fe7f	0.023802994
87	0x3b87a114	0.004139075
88	0x3c867569	0.016413407
89	0x3c49d4bf	0.012318789
90	0x3cf9bbf6	0.030485135
91	0x3cac17c7	0.021007432
92	0x3ca8d86b	0.020611009
93	0x3beef3dc	0.007292254
94	0xbb11ddee	-0.0022257525
95	0xbc44495b	-0.01198038
96	0x3bdeffab	0.0068053803
97	0x3b83d85b	0.0040235943
98	0x3b9b9b6c	0.0047487523
99	0x3b682a67	0.0035425664
100	0xbc4a11f4	-0.012333382
101	0xbc008409	-0.00784398
102	0xbca72936	-0.020405393
103	0x3d00a626	0.03140845
104	0x3cbb87bc	0.022891872
105	0x3c818e0a	0.0158148
106	0x3c05a7ec	0.0081577115
107	0x3cf0a2c3	0.029374486
108	0x3c586ef4	0.013210047
109	0xbce681e6	-0.028138112
110	0x3a67a9db	0.0008837261
111	0x3ab756b0	0.0013987627
112	0xbc5ced8d	-0.013484371
113	0xbc7e813c	-0.015533742
114	0x3c1ae490	0.009453908
115	0xbc808594	-0.015688695
116	0x3c05afec	0.008159619
117	0x3b152149	0.0022755435
118	0xbc88d9f2	-0.016705487
119	0x3c4f6d0e	0.012660278
120	0x3c6a6886	0.014307147
121	0x3c28ae7b	0.010295506
122	0xbc5e962d	-0.013585609
123	0x3b01c66d	0.001980211
124	0xbc6ec0e1	-0.014572353
125	0xbccbdbed	-0.024885142
126	0x3c232eea	0.009959916
127	0x3be5d19e	0.0070135137
128	0xbc374662	-0.011186214
129	0xbc6c922d	-0.014439148
130	0xbb8f1d0c	-0.0043674763
131	0xbc08cf1e	-0.008350162
132	0x3c5921f3	0.013252723
133	0xbbf2a2a6	-0.007404643
134	0x3c68dc92	0.014212744
135	0xbbc7a0de	-0.006092175
136	0xbb9be945	-0.0047580325
137	0x3bd28555	0.006424586
138	0xbb548b86	-0.0032431795
139	0xbc66ba67	-0.014082528
140	0x3ca13bde	0.019681867
141	0x3bbc6cc2	0.0057502696
142	0xbc1cd086	-0.0095712
143	0x3bea1570	0.007143669
144	0xbca8b26a	-0.020592887
145	0x3c712818	0.014719032
146	0x3bcc8697	0.0062416303
147	0x3c6a9996	0.014318844
148	0x3c3ab385	0.01139534
149	0x3c000e3b	0.007815893
150	0xbb9f2bc0	-0.0048575103
151	0xbbb368df	-0.005475148
152	0x3c9c135f	0.019052206
153	0x3ca70263	0.02038688
154	0xbca98e0b	-0.020697614
155	0xbb1f70a4	-0.0024328614
156	0x3c19ea5b	0.009394254
157	0x3c9cffdc	0.019164972
158	0xbc8d9e56	-0.017287415
159	0xbafcef43	-0.001929738
160	0x3bebeede	0.007200106
161	0xbb33494e	-0.0027356925
162	0xbc526282	-0.012840869
163	0xbc86de82	-0.016463522
164	0x3cbec106	0.0232854
165	0xbc4673d9	-0.012112581
166	0x3cd1fe31	0.025633903
167	0xbc8577e2	-0.016292516
168	0xbc2aaba5	-0.0104169
169	0xbc08268c	-0.008309972
170	0xbc7d38b7	-0.015455416
171	0xbcc84907	-0.024448885
172	0xbc34924b	-0.011021207
173	0x3bffa144	0.007801207
174	0x391543d5	0.00014235017
175	0x397e0e87	0.0002422874
176	0x3c0fe575	0.008782734
177	0xbca23d07	-0.01980449
178	0xbb43046d	-0.0029757277
179	0x3bffc1a1	0.007805065
180	0xbcac6829	-0.021045761
181	0x3c50c730	0.0127428025
182	0x3bb94a0a	0.005654578
183	0x3c8cad1c	0.017172389
184	0xbcb5261c	-0.022112899
185	0xbc420f60	-0.011844486
186	0xbbbb7601	-0.0057208543
187	0x3c13cc76	0.009020915
188	0x3bbd4acb	0.0057767383
189	0xbcae5bf9	-0.02128409
190	0x3c5d7f67	0.013519145
191	0x3cce51dc	0.025185518
192	0x3cf2dcc5	0.029646287
193	0xbc4e70a6	-0.0126001
194	0xbc1625ab	-0.009164254
195	0x3c4d7b0e	0.012541546
196	0x3adea8f5	0.0016987609
197	0x3ca18a66	0.019719314
198	0x3c4c8ad9	0.012484276
199	0xbc124188	-0.008926757
200	0x3cd17b6c	0.025571547
201	0xbbc9c670	-0.006157689
202	0xb89a6945	-7.3629e-05
203	0xbcf8de9d	-0.030379588
204	0xbc2b6243	-0.010460439
205	0x3ba8264b	0.005131518
206	0xbc52cfbf	-0.012866913
207	0xbb95dff3	-0.004573816
208	0x3c3d7e43	0.011565748
209	0x3b38afcb	0.0028180953
210	0x3c760085	0.015014772
211	0xb996d4e1	-0.00028768837
212	0x3c087df7	0.008330814
213	0xbc2120f1	-0.009834514
214	0xbcdb85c9	-0.026797192
215	0x3c519545	0.012791936
216	0xbcb1285e	-0.021625694
217	0x3bd8f8af	0.0066214423
218	0x3bf92e8f	0.007604427
219	0xbbe26653	-0.0069091707
220	0xbce67fea	-0.028137166
221	0xbcb3ae27	-0.021933628
222	0x3cea5e74	0.028609492
223	0xbb9016e0	-0.004397258
224	0x3c3ff622	0.0117163975
225	0xbc64f836	-0.013975194
226	0x3c6526f6	0.01398634
227	0x3ca40903	0.020023828
228	0xbbcc72a1	-0.006239251
229	0xbc56d244	-0.013111655
230	0xbc2b2ae5	-0.010447239
231	0x3c0fc1c6	0.0087742265
232	0x3ccd65f0	0.025073022
233	0x3caa52aa	0.02079137
234	0xbca8fa1e	-0.020627078
235	0xbbbf4f73	-0.0058383285
236	0xbc0ac1a4	-0.008469019
237	0x3a950801	0.0011370183
238	0x3c4b55f5	0.0124106305
239	0x3cd44144	0.025910027
240	0x39ffd4be	0.00048795895
241	0x3cc52bb2	0.024068687
242	0xbce2a54c	-0.02766671
243	0xbc9f4ddb	-0.019446304
244	0xbc3dc3fa	-0.011582369
245	0xbc580617	-0.013185046
246	0x3cc202e9	0.023683028
247	0x3d5173c3	0.05113579
248	0x3c8054e5	0.01566548
249	0xbc207a40	-0.009794772
250	0xbc81c2ca	-0.015839953
251	0x3ccb3d07	0.024809374
252	0x3baf9df1	0.0053594043
253	0x3bad5eb6	0.0052908314
254	0xbcbc2e2c	-0.022971235
255	0x3d0d1035	0.034439284
