models/model_1.pt (torch, 98887 bytes, 9 tensors)

query.weight f4 [64, 4]
0.018892135 -0.08074652 0.24954873 0.0062618735 0.37698102 0.33028412 -0.14906251 -0.19496393
-0.44964045 -0.08898687 0.3497126 0.23585412 0.07319604 -0.032797065 0.056813087 0.09609226
0.082598336 -0.51418495 -0.15445851 -0.5485236 -0.14281839 0.26148066 0.06908114 -0.44872123
0.571159 0.2939907 0.40809786 0.41388905 0.3339755 -0.101014346 -0.06899079 -0.20866615
-0.42609456 -0.26007205 0.42574745 -0.002182675 0.30511475 0.35628787 0.027062213 0.4364635
0.57517135 -0.1806155 -0.36652303 0.38018268 -0.29087025 -0.16513206 -0.08710943 -0.48277304
-0.14133129 -0.29244962 -0.21070212 -0.35902885 0.22002056 0.17094223 0.4249227 -0.45065168
0.363394 0.3007296 -0.37709123 0.3887097 0.027183397 -0.3171347 -0.19772588 0.30154887
-0.27496135 0.3829685 0.4372936 -0.18517385 0.32486385 -0.43829405 -0.33786353 -0.21889523
0.31092712 -0.045000207 -0.2879575 -0.34059662 0.36784115 0.40324274 0.07495935 0.13158351
-0.23290533 0.4256336 -0.41629618 0.28064483 -0.1686661 -0.2425538 0.15174083 0.35692364
0.13858446 0.02881777 -0.06995624 0.2816944 -0.29904714 0.5637285 -0.13147885 -0.102977835
-0.20889421 0.3973463 -0.053995535 0.19934207 0.5028667 -0.39988187 0.15771414 0.17880245
0.34434146 0.05868656 0.24566841 0.43888184 0.37898165 -0.20784883 -0.51059425 -0.26873866
0.5450504 0.33612892 -0.16855372 0.04335202 0.22501433 0.061370227 0.45304143 0.18227538
0.3185359 -0.23079096 -0.14464483 0.41362068 -0.2232729 -0.22760151 -0.4193181 -0.18575096
0.13140976 -0.27545208 -0.17864326 0.15746489 0.087509334 0.3096994 0.15713552 0.011713568
-0.35394508 0.35687336 -0.10056456 -0.36670783 0.22353953 0.11473302 -0.43482214 -0.11847461
0.36720443 0.09156169 0.059894454 0.15597804 -0.39862058 -0.26610425 0.004532336 -0.08321851
0.33849066 -0.11702358 0.45334065 -0.13658139 0.19127749 -0.18891355 -0.2954379 -0.18376537
-0.18768066 -0.10437551 -0.43992278 -0.41964447 0.1437628 0.16684821 -0.28328088 -0.33238268
0.0039958707 -0.37219363 0.24137849 0.0371192 0.13942757 0.22860304 -0.43842238 -0.5555878
0.24265906 -0.011950794 -0.047375478 0.40830338 -0.14259958 -0.39678282 -0.43334574 0.006333897
0.18828262 -0.36282992 0.03830822 0.3299208 -0.37241405 -0.28965244 0.18593068 0.45480102
-0.13925314 0.07391546 -0.48437104 -0.3074588 -0.37012178 -0.39189896 -0.32736766 -0.038204852
0.08347099 0.36524677 -0.08354631 0.20000483 0.13047671 -0.15792449 -0.2001295 0.015691483
0.06929429 -0.005768539 -0.29171574 0.050408173 0.09615686 0.3155954 -0.19276792 -0.40704718
0.38266966 0.41333604 -0.26193547 0.45819008 0.25425258 -0.30518734 -0.23356874 -0.3377193
0.0333593 -0.05187435 -0.4234634 0.35264304 0.40044323 0.06508611 0.3121302 0.03879395
-0.22733705 0.13716227 0.0617908 -0.29891178 -0.027867958 -0.201083 -0.37572435 0.055252746
-0.23835087 0.085394695 -0.44550475 -0.414974 -0.24460833 -0.51338226 0.3039866 0.08830412
-0.23776121 -0.0038583064 -0.091852725 -0.3287232 0.37832883 -0.533429 0.2816054 0.12050059
00000000: aec3 9a3c 6e5e a5bd b489 7f3e 6730 cd3b
00000010: a803 c13e 001b a93e d8a3 18be a0a4 47be
00000020: 4637 e6be c03e b6bd 880d b33e be83 713e
00000030: cee7 953d 3756 06bd d7b4 683d 05cc c43d
00000040: 5129 a93d a0a1 03bf 5f2a 1ebe 0b6c 0cbf
00000050: fc3e 12be cbe0 853e 6a7a 8d3d cabe e5be
00000060: 7a37 123f f385 963e 34f2 d03e 44e9 d33e
00000070: d6fe aa3e 9ce0 cebd 0b4b 8dbd 94ac 55be
00000080: 1129 dabe 2a28 85be 92fb d93e 360b 0fbb
00000090: 0038 9c3e 5d6b b63e 93b1 dd3c 2578 df3e
000000a0: 6e3e 133f 45f3 38be e8a8 bbbe 4ea7 c23e
000000b0: f2ec 94be 6118 29be 6e66 b2bd 072e f7be
000000c0: 26b9 10be f5bb 95be 4cc2 57be a1d2 b7be
000000d0: 124d 613e 7b0b 2f3e 788f d93e d1bb e6be
000000e0: c70e ba3e 3bf9 993e 1a12 c1be f504 c73e
000000f0: b7af de3c 7b5f a2be a778 4abe 9d64 9a3e
00000100: bcc7 8cbe 7214 c43e f2e4 df3e 379e 3dbe
00000110: 8e54 a63e 1468 e0be 73fc acbe 1226 60be
00000120: d731 9f3e 2352 38bd 2a6f 93be ae62 aebe
00000130: ad55 bc3e d575 ce3e 4a84 993d d4bd 063e
00000140: bc7e 6ebe a6ec d93e c624 d5be aeb0 8f3e
00000150: ceb6 2cbe 0660 78be f361 1b3e b2be b63e
00000160: 16e9 0d3e 3e13 ec3c 3845 8fbd 403a 903e
00000170: b51c 99be 8350 103f 64a2 06be 0be6 d2bd
00000180: 5de8 55be f970 cb3e 6c2a 5dbd 5420 4c3e
00000190: dfbb 003f 51bd ccbe d17f 213e fd17 373e
000001a0: 864d b03e 5161 703d 8090 7b3e 1fb5 e03e
000001b0: e209 c23e 53d6 54be 4eb6 02bf 1d98 89be
000001c0: 6c88 0b3f 1719 ac3e 5999 2cbe e391 313d
000001d0: 286a 663e 595f 7b3d 0cf5 e73e 66a6 3a3e
000001e0: 2317 a33e 7754 6cbe c61d 14be 17c6 d33e
000001f0: a7a1 64be 5f10 69be ddb0 d6be 8035 3ebe
00000200: 4890 063e 0e08 8dbe 42ee 36be 7a3e 213e
00000210: 1838 b33d eb90 9e3e 22e8 203e 44ea 3f3c
00000220: 4a38 b5be 1bb8 b63e cbf4 cdbd 21c1 bbbe
00000230: 8ce7 643e 25f9 ea3d 02a1 debe d1a2 f2bd
00000240: 3802 bc3e b284 bb3d e353 753d b5b8 1f3e
00000250: ff17 ccbe d13e 88be fd83 943b 776e aabd
00000260: a64e ad3e 0faa efbd 441c e83e fedb 0bbe
00000270: 3fde 433e 8e72 41be a343 97be fd2c 3cbe
00000280: 5c2f 40be d4c2 d5bd 8f3d e1be a4db d6be
00000290: 8e36 133e 42da 2a3e 310a 91be 102e aabe
000002a0: cbef 823b 2a90 bebe ec2b 773e 4d0a 183d
000002b0: 1ac6 0e3e ea16 6a3e e678 e0be 013b 0ebf
000002c0: 9e7b 783e 43cd 43bc ca0c 42bd 240d d13e
000002d0: a005 12be 1e27 cbbe 7edf ddbe 948c cf3b
000002e0: 29cd 403e d8c4 b9be 15e9 1c3d 61eb a83e
000002f0: 0ead bebe 534d 94be 9d64 3e3e aedb e83e
00000300: 6098 0ebe fd60 973d 7bff f7be 3d6b 9dbe
00000310: 9a80 bdbe fba6 c8be bc9c a7be b17c 1cbd
00000320: d7f2 aa3d a001 bb3e 541a abbd 11ce 4c3e
00000330: b09b 053e f5b6 21be bfee 4cbe 6d8b 803c
00000340: 2aea 8d3d 0306 bdbb c45b 95be cd78 4e3d
00000350: e3ed c43d b895 a13e f464 45be 7d68 d0be
00000360: 47ed c33e c8a0 d33e 681c 86be e497 ea3e
00000370: 652d 823e 8441 9cbe a52c 6fbe 8be9 acbe
00000380: c3a3 083d 337a 54bd 32d0 d8be a18d b43e
00000390: e506 cd3e de4b 853d 88cf 9f3e 68e6 1e3d
000003a0: 0bcb 68be 4474 0c3e 5a18 7d3d f70a 99be
000003b0: 584b e4bc b4e8 4dbe f15e c0be b450 623d
000003c0: 4012 74be 6ae3 ae3d 3319 e4be 7977 d4be
000003d0: 9b7a 7abe 056d 03bf 22a4 9b3e cad8 b43d
000003e0: ad77 73be a4db 7cbb 481d bcbd 684e a8be
000003f0: 51b4 c13e ce8e 08bf 952e 903e 03c9 f63d

query.bias f4 [64]
-0.5544967 -0.44319364 0.14516571 -0.12969819 -0.19896956 -0.25737894 -0.14009827 0.3452355
-0.026584119 -0.2443734 -0.43072832 -0.18244605 0.5081525 -0.054577045 -0.18370481 -0.24856317
-0.06476888 -0.26270822 -0.468819 -0.49545884 0.50089335 -0.384225 0.07099791 0.25602674
-0.5035967 0.33960223 -0.37345943 0.24551797 0.4209869 0.28460512 0.23665747 -0.18935415
-0.16652323 0.28646463 0.16154225 0.1544082 -0.12748882 -0.16969983 -0.2748359 -0.061857935
-0.39694104 0.4652969 -0.3921571 0.0064109424 0.09287046 -0.3462775 0.15231737 0.42150572
-0.4263859 -0.0028214485 -0.08428204 0.48644125 -0.4571467 0.334075 -0.5048087 -0.0035833914
0.102587834 -0.24818337 0.14521712 -0.465495 0.41573933 -0.44303015 0.3253603 -0.103649884
00000000: 7ff3 0dbf 47ea e2be 52a6 143e 9acf 04be
00000010: adbe 4bbe 2cc7 83be ec75 0fbe b5c2 b03e
00000020: f0c6 d9bc 053d 7abe 6c88 dcbe 23d3 3abe
00000030: 4816 023f 2e8c 5fbd 1d1d 3cbe 5887 7ebe
00000040: 8ca5 84bd b181 86be 0b09 f0be c8ac fdbe
00000050: 8c3a 003f 24b9 c4be 5a67 913d f015 833e
00000060: b7eb 00bf 58e0 ad3e 1336 bfbe 1069 7b3e
00000070: 988b d73e c3b7 913e 5656 723e 0ee6 41be
00000080: 1185 2abe 7eab 923e 556b 253e 2f1d 1e3e
00000090: 6e8c 02be cbc5 2dbe 4bb7 8cbe bf5e 7dbd
000000a0: db3b cbbe 653b ee3e d1c8 c8be e212 d23b
000000b0: de32 be3d 494b b1be 16f9 1b3e 99cf d73e
000000c0: 414f dabe 0de8 38bb 109c acbd d40e f93e
000000d0: 220f eabe e10b ab3e 253b 01bf 55d7 6abb
000000e0: 9219 d23d c823 7ebe ccb3 143e 5c55 eebe
000000f0: c9db d43e d9d4 e2be a095 a63e 6446 d4bd

key.weight f4 [64, 4]
0.36146817 -0.407554 0.2677459 -0.13810809 0.12352289 0.49522004 -0.096657075 -0.3856245
0.24548592 0.11151577 0.080954574 0.43996537 0.046754833 -0.44980127 0.06534161 -0.4111831
0.47180617 -0.048935827 0.46117195 -0.21918243 -0.10362726 0.17372058 0.18486546 -0.1651648
-0.51233864 0.4273606 -0.07174151 0.3022566 0.41822538 -0.2947688 -0.2335381 0.33095425
-0.18661638 -0.40506163 0.42272666 -0.34505638 0.08919852 -0.39644027 0.22291145 -0.29641044
-0.39016148 0.22413352 -0.43768644 -0.18554024 0.32985124 -0.0905953 -0.45077437 0.3708551
-0.040384796 0.11605171 -0.29768738 -0.36479434 0.2292607 0.45278907 0.40929317 -0.19032383
-0.27503118 -0.18177152 0.08126068 -0.10417845 -0.16280049 0.46918374 -0.30745092 -0.6246666
0.25690636 -0.114443794 0.39185116 0.4133485 0.36451262 0.23171897 0.5056779 -0.43530124
-0.33042663 -0.29053593 -0.2667485 0.18761358 0.25858384 -0.37862656 -0.007040385 0.40796545
0.13561009 0.1802773 0.042767365 0.46392572 0.49321917 -0.494501 0.30708364 0.3916036
0.41767567 0.22033757 -0.0034598275 0.5222435 -0.030438486 -0.303032 -0.25095502 0.27593803
0.20732453 -0.0011641213 0.3859755 0.346937 -0.10311462 -0.09256868 -0.26173928 0.03368888
-0.08407284 0.2743476 -0.23937199 -0.021757841 0.33209604 0.010266813 0.28912586 0.31930602
-0.25246984 0.14346506 0.008351273 0.13234317 -0.41310287 -0.342511 -0.4519837 -0.43707108
-0.06075607 -0.100727804 0.14663826 0.38354972 0.057844695 -0.37721622 -0.0010858374 0.4067251
0.08646471 0.3078013 -0.05187727 0.01892036 -0.47767544 0.40941945 -0.3448382 -0.33647013
0.05874076 -0.29290336 0.24224728 0.083258264 -0.4992569 -0.043046404 0.4867055 -0.16884929
0.3805475 0.45286733 0.17472766 0.5332686 -0.08103985 -0.43833768 0.24590436 0.34764493
0.25360397 0.31330532 0.2692739 -0.41009873 0.35280594 0.0050720815 0.26059765 0.24815086
0.47295842 0.19521481 0.1268777 0.29818174 0.05122618 0.017725617 0.20108029 0.21794395
-0.42113912 -0.14190955 0.29247344 0.15199776 0.05102126 0.2708992 0.28930113 0.4125719
0.04630117 0.20608222 -0.098493 0.47433448 -0.37557858 -0.0858979 0.26543579 -0.39837316
0.37411064 -0.009262533 -0.14681432 -0.33234483 0.5464078 -0.33424053 -0.25584334 0.004036437
0.319613 -0.031988278 -0.3865289 0.22423378 0.35403687 0.16751929 -0.13497023 -0.44205248
-0.34581184 -0.01889129 0.21001783 0.63274014 -0.24489284 0.18962233 -0.1535298 -0.31482142
-0.34696347 -0.45418647 0.14908661 0.041427415 0.23437439 -0.23470478 0.29583985 0.1084086
-0.291399 -0.428752 0.45879218 0.10032207 -0.43216282 -0.08338852 -0.4731844 -0.24168336
-0.3959014 -0.07133333 -0.49131474 -0.016618652 0.03731069 0.44960922 -0.29573727 0.01771067
0.071215466 -0.31507716 -0.16892974 -0.18753198 0.2122644 -0.17769912 0.4103993 -0.27649617
-0.35423127 -0.45246112 -0.082410134 -0.32353073 0.11616612 0.47145367 0.48376715 0.24679096
-0.12558924 -0.39884573 0.16623977 0.32893398 0.41267055 -0.15180677 -0.2867164 -0.49694172
00000000: 5b12 b93e ebaa d0be fe15 893e 356c 0dbe
00000010: 92f9 fc3d 7b8d fd3e 25f4 c5bd 9370 c5be
00000020: a960 7b3e 6162 e43d 83cb a53d 2443 e13e
00000030: ff81 3f3d 5a4c e6be d2d1 853d 9786 d2be
00000040: 9490 f13e ef70 48bd bb1e ec3e 5c71 60be
00000050: 873a d4bd cfe3 313e 5f4d 3d3e f620 29be
00000060: a028 03bf 02cf da3e 36ed 92bd 61c1 9a3e
00000070: a321 d63e f0eb 96be 9d24 6fbe d672 a93e
00000080: 5d18 3fbe 3d64 cfbe a16f d83e 3bab b0be
00000090: b7ad b63d 38fa cabe e642 643e 1cc3 97be
000000a0: 3fc3 c7be 4283 653e 7018 e0be 43fe 3dbe
000000b0: 43e2 a83e 078a b9bd e6cb e6be b8e0 bd3e
000000c0: 876a 25bd 85ac ed3d 7b6a 98be 53c6 babe
000000d0: 51c3 6a3e f8d3 e73e e08e d13e 40e4 42be
000000e0: e3d0 8cbe 5022 3abe 006c a63d 835b d5bd
000000f0: 2cb5 26be da38 f03e 356a 9dbe 26ea 1fbf
00000100: 3b89 833e 8261 eabd b7a0 c83e 6aa2 d33e
00000110: 66a1 ba3e bd47 6d3e 1b74 013f cedf debe
00000120: ae2d a9be 20c1 94be 4293 88be c61d 403e
00000130: 1a65 843e 57db c1be 08b3 e6bb d9e0 d03e
00000140: 5fdd 0a3e 9d9a 383e d52c 2f3d ac87 ed3e
00000150: 3987 fc3e 3c2f fdbe 113a 9d3e 4480 c83e
00000160: 96d9 d53e 2ca0 613e 46be 62bb c0b1 053f
00000170: 225a f9bc 0327 9bbe 2d7d 80be c047 8d3e
00000180: e24c 543e 6e95 98ba 959e c53e baa1 b13e
00000190: c22d d3bd a694 bdbd b102 86be 5afd 093d
000001a0: 622e acbd 4a77 8c3e ee1d 75be 803d b2bc
000001b0: 7e08 aa3e 2336 283c 4e08 943e 147c a33e
000001c0: ba43 81be 81e8 123e c7d3 083c f884 073e
000001d0: 3882 d3be 9a5d afbe 686a e7be c8c7 dfbe
000001e0: 5bdb 78bd 614a cebd 5728 163e a160 c43e
000001f0: 8fee 6c3d 7c22 c1be a852 8eba 463e d03e
00000200: 6914 b13d 2298 9d3e 437d 54bd dffe 9a3c
00000210: e091 f4be 6d9f d13e a28e b0be d045 acbe
00000220: 279a 703d 6ef7 95be ac0f 783e 4f83 aa3d
00000230: 9a9e ffbe 6d51 30bd 7731 f93e d4e6 2cbe
00000240: 1fd7 c23e 3ade e73e cfeb 323e 4a84 083f
00000250: 39f8 a5bd cc6d e0be 5ace 7b3e 84fe b13e
00000260: 61d8 813e 8e69 a03e 45de 893e 76f8 d1be
00000270: fba2 b43e b433 a63b 0e6d 853e 421b 7e3e
00000280: 9b27 f23e 64e6 473e 3aec 013e 47ab 983e
00000290: 8bd2 513d 5035 913c fee7 4d3e b32c 5f3e
000002a0: 8c9f d7be bd50 11be 14bf 953e 4da5 1b3e
000002b0: abfb 503d 4db3 8a3e 471f 943e a03c d33e
000002c0: 4ca6 3d3d 3807 533e b3b6 c9bd f8db f23e
000002d0: d64b c0be 3deb afbd 33e7 873e 91f7 cbbe
000002e0: 6e8b bf3e e1c1 17bc 7e56 16be 1a29 aabe
000002f0: 62e1 0b3f 9321 abbe e6fd 82be 1644 843b
00000300: 51a4 a33e 2406 03bd 1ee7 c5be 8a9d 653e
00000310: 5244 b53e 2d8a 2b3e a335 0abe b454 e2be
00000320: 400e b1be e8c1 9abc ea0e 573e 42fb 213f
00000330: 30c5 7abe 5b2c 423e ea36 1dbe 4630 a1be
00000340: 32a5 b1be 218b e8be 29aa 183e cbaf 293d
00000350: d7ff 6f3e 7356 70be 5278 973e 5405 de3d
00000360: 4032 95be 6285 dbbe cfe6 ea3e a875 cd3d
00000370: 7244 ddbe 9ac7 aabd 3a45 f2be d87b 77be
00000380: 97b3 cabe 3517 92bd 9b8d fbbe d723 88bc
00000390: 18d3 183d 2e33 e63e e06a 97be f815 913c
000003a0: 6ad9 913d cb51 a1be ebfb 2cbe 6208 40be
000003b0: d75b 593e c2f6 35be db1f d23e e890 8dbe
000003c0: cd5d b5be fca8 e7be a5c6 a8bd d2a5 a5be
000003d0: 81e8 ed3d 6062 f13e 54b0 f73e c5b6 7c3e
000003e0: 779a 00be 8235 ccbe c23a 2a3e 096a a83e
000003f0: 8e49 d33e 3c73 1bbe 7ecc 92be 256f febe

key.bias f4 [64]
0.23035091 0.5709176 0.22064073 -0.045813844 0.25264576 -0.24700932 0.24014057 0.39083374
0.15292852 -0.032099366 0.5382595 0.22011776 -0.0038569567 -0.2290572 0.47483766 0.4663809
0.31713516 0.33869854 0.5153708 0.29525834 0.027238047 -0.5066376 -0.36260712 -0.31275088
-0.47964454 0.39061636 -0.35837674 -0.3803924 -0.26595318 -0.09063839 0.54471993 -0.47131714
0.30079332 -0.10016343 -0.17103873 -0.0253499 -0.29057637 0.29094166 -0.28039283 0.49891156
-0.29311496 -0.3311443 -0.4732166 0.20233858 -0.26811936 -0.22828695 -0.30486488 0.4010616
-0.3832023 -0.44056818 0.102494374 -0.1050439 -0.078244664 0.11176039 -0.40307128 -0.07632319
0.3170861 0.112593785 -0.055034216 0.31029588 -0.3086507 0.12379343 -0.06551591 0.22017519
00000000: 1ce1 6b3e a827 123f a5ef 613e 4ca7 3bbd
00000010: c95a 813e 03f0 7cbe 69e7 753e 5c1b c83e
00000020: 4b99 1c3e a07a 03bd 60cb 093f 8d66 613e
00000030: ffc4 7cbb f88d 6abe ec1d f33e 7ac9 ee3e
00000040: 8a5f a23e e569 ad3e 57ef 033f 1a2c 973e
00000050: 5322 df3c 00b3 01bf a4a7 b9be e220 a0be
00000060: f893 f5be defe c73e 287d b7be cbc2 c2be
00000070: 042b 88be 9fa0 b9bd c472 0b3f 7b50 f1be
00000080: 9501 9a3e 7c22 cdbd c724 2fbe 98aa cfbc
00000090: 6dc6 94be 4ef6 943e a68f 8fbe 5671 ff3e
000000a0: 2a13 96be bf8b a9be 7249 f2be d831 4f3e
000000b0: f146 89be 0ec4 69be 4017 9cbe f257 cd3e
000000c0: 1833 c4be 2792 e1be 92e8 d13d 4221 d7bd
000000d0: bd3e a0bd a2e2 e43d 5c5f cebe 554f 9cbd
000000e0: 1c59 a23e 9297 e63d 8f6b 61bd 1adf 9e3e
000000f0: 7707 9ebe 6987 fd3d 352d 86bd 9b75 613e

value.weight f4 [64, 4]
-0.042379096 0.042566106 0.48484182 -0.053075694 -0.18365152 0.19516753 0.23569095 0.11142842
-0.0455428 0.08070277 0.21062371 -0.22699843 -0.14484914 0.21648145 0.4864803 -0.41351107
-0.10071116 0.098927975 0.47606307 0.31591383 0.0062156827 0.021167068 0.3501771 -0.2382149
0.060655054 -0.062564716 0.18395889 -0.1925774 0.007546451 -0.013367311 -0.047970954 0.076163895
0.12595655 -0.16589506 -0.5931413 0.16885881 0.07535105 -0.0593423 -0.2528976 -0.21621591
0.14007255 -0.21336268 0.21675415 0.31950557 0.022351252 -0.036192335 -0.4014146 0.24546999
0.27428874 -0.33786654 -0.3543857 -0.22962326 -0.012310444 -0.0020848333 0.21390863 0.054564733
-0.047370445 0.037452858 -0.36199087 0.13644806 0.023619931 -0.03405128 0.06397874 0.14325444
-0.083323725 0.09977193 0.49568164 0.1400956 -0.20115168 0.2215262 -0.4745815 0.49564448
0.025612706 0.0046756007 0.13373372 -0.26931927 0.0031693429 0.05655616 -0.4261779 -0.469419
0.18238431 -0.24657318 0.068582736 0.1444209 0.1558817 -0.22706242 0.22260383 0.2035516
-0.008865924 0.022735193 -0.14837737 -0.065010265 0.10599392 -0.16964808 -0.27528682 0.43646085
0.22977898 -0.27252302 -0.72001755 -0.084015355 0.0309268 0.018529925 0.12785248 -0.4593013
-0.039166242 0.05571143 0.440328 -0.16301244 -0.24771692 0.33534318 0.033920903 -0.22764917
-0.069187805 0.10260457 -0.14358115 -0.21282838 0.13035922 -0.22601983 0.5420642 0.5669123
0.035756543 -0.015298783 0.14454722 -0.29930183 0.2670962 -0.3299071 -0.406045 -0.116480105
0.09082415 -0.09255979 -0.4950538 -0.22292364 0.10957508 -0.16566446 -0.55197716 0.37136754
0.11643785 -0.10547888 0.03611993 -0.30781096 -0.10325589 0.06090787 0.526387 0.67246306
-0.04243999 0.03997121 -0.25821668 0.106715076 0.02656577 -0.0032439171 -0.4135035 -0.17966819
-0.12106399 0.17136982 -0.047351412 -0.009072707 -0.23689589 0.27271274 0.21726504 0.22657861
0.1319949 -0.16443606 0.04866392 -0.11486108 0.013645196 -0.0301559 0.25211748 0.14634831
0.1356571 -0.21222767 0.15841982 0.2978868 0.015423549 -0.0015727225 0.1723777 0.18438469
-0.09991309 0.123961285 0.48681128 0.050028276 0.0962536 -0.0796256 -0.3675056 -0.45116684
-0.22031301 0.27223784 0.6971528 -0.10746993 -0.0045507886 0.011373907 0.48022917 -0.10989924
-0.14088494 0.20821291 0.4914989 -0.4109274 -0.1759577 0.2230984 0.12512396 -0.12198699
-0.1981051 0.2547034 0.36877194 0.029463278 0.07798499 -0.039379895 0.28727794 -0.6363601
0.097311504 -0.08978087 -0.27769035 -0.3115747 0.19963036 -0.2130716 -0.054248396 -0.33719042
-0.21605839 0.28472123 -0.045597088 0.039299928 -0.001487858 0.045010682 -0.29847753 -0.26708427
0.060357496 -0.1272718 -0.26225427 0.5971853 -0.00100109 0.029600488 0.47194567 -0.20924889
0.0002655059 -0.0015095604 0.030133406 0.031256568 0.14613347 -0.16676134 0.04815204 -0.14217202
0.054930672 -0.11791586 -0.18883695 0.4378748 0.023286568 -0.08803625 0.44653004 0.4033602
0.019041112 0.013424718 0.028580436 -0.3914298 0.15112916 0.047743358 0.45628735 -0.9484009
00000000: b495 2dbd cc59 2e3d 303d f83e e665 59bd
00000010: 250f 3cbe ffd9 473e f858 713e 9534 e43d
00000020: 168b 3abd 7e47 a53d bead 573e 4772 68be
00000030: 5553 14be 50ad 5d3e f213 f93e b9b7 d3be
00000040: a741 cebd c09a ca3d 8abe f33e 75bf a13e
00000050: edac cb3b 8f66 ad3c 6a4a b33e 9bee 73be
00000060: 6f71 783d ee21 80bd b85f 3c3e 0333 45be
00000070: 3848 f73b 9102 5bbc 317d 44bd d1fb 9b3d
00000080: c1fa 003e 65e0 29be 1cd8 17bf 53e9 2c3e
00000090: a751 9a3d e910 73bd cb7b 81be b467 5dbe
000000a0: 2e6f 0f3e bf7b 5abe cdf4 5d3e 3c96 a33e
000000b0: f919 b73c 6a3e 14bd 3786 cdbe 7c5c 7b3e
000000c0: 936f 8c3e d8fc acbe 0b72 b5be 5c22 6bbe
000000d0: bfb1 49bc b3a1 08bb dd0a 5b3e 457f 5f3d
000000e0: 8307 42bd 2b68 193d de56 b9be 0ab9 0b3e
000000f0: 967e c13c 5b79 0bbd 4907 833d 4bb1 123e
00000100: a1a5 aabd 3a55 cc3d fcc9 fd3e 3975 0f3e
00000110: b5fa 4dbe c4d7 623e 59fc f2be 1dc5 fd3e
00000120: bdd1 d13c c835 993b 7ef1 083e 37e4 89be
00000130: c0b4 4f3b 6fa7 673d fd33 dabe b057 f0be
00000140: f4c2 3a3e ae7d 7cbe 1b75 8c3d 13e3 133e
00000150: 749f 1f3e 0d83 68be 42f2 633e d56f 503e
00000160: 6142 11bc 283f ba3c 3df0 17be 1a24 85bd
00000170: 5713 d93d 3ab8 2dbe 65f2 8cbe cc77 df3e
00000180: 2e4b 6b3e 2388 8bbe 1253 38bf 3e10 acbd
00000190: 335a fd3c 12cc 973c c3eb 023e 8a29 ebbe
000001a0: c86c 20bd ab31 643d ac72 e13e bcec 26be
000001b0: 81a9 7dbe 1ab2 ab3e a5f0 0a3d dd1c 69be
000001c0: 56b2 8dbd 5822 d23d f006 13be afef 59be
000001d0: e37c 053e be71 67be b8c4 0a3f 2a21 113f
000001e0: 7475 123d bfa7 7abc 3004 143e 173e 99be
000001f0: d5c0 883e 95e9 a8be 21e5 cfbe 1f8d eebd
00000200: 0302 ba3d fd8f bdbd b177 fdbe 1846 64be
00000210: e668 e03d f2a3 29be 604e 0dbf e323 be3e
00000220: f876 ee3d 5005 d8bd 7ef2 133d 6699 9dbe
00000230: d377 d3bd 887a 793d 4cc1 063f 8a26 2c3f
00000240: 8ed5 2dbd dab8 233d fa34 84be 6f8d da3d
00000250: 75a0 d93c e697 54bb bbb6 d3be f0fa 37be
00000260: 66f0 f7bd 927b 2f3e 8ef3 41bd b1a5 14bc
00000270: d694 72be 01a1 8b3e ba7a 5e3e 3904 683e
00000280: ac29 073e ed61 28be d253 473d 493c ebbd
00000290: 1a90 5f3c 8209 f7bc 8b15 813e 55dc 153e
000002a0: b2e9 0a3e 3652 59be ce38 223e 9e84 983e
000002b0: 0eb3 7c3c cf23 ceba c883 303e 57cf 3c3e
000002c0: 3c9f ccbd 6adf fd3d 543f f93e 73ea 4c3d
000002d0: 9c20 c53d bf12 a3bd b229 bcbe 57ff e6be
000002e0: bc99 61be c262 8b3e 9b78 323f 3219 dcbd
000002f0: c81e 95bb a059 3a3c 99e0 f53e da12 e1bd
00000300: 2444 10be c435 553e bea5 fb3e 1465 d2be
00000310: 412e 34be e873 643e 7f20 003e 51d4 f9bd
00000320: 10dc 4abe 7c68 823e adcf bc3e f95c f13c
00000330: 98b6 9f3d d04c 21bd 1816 933e 7fe8 22bf
00000340: 414b c73d 08df b7bd 6e2d 8ebe b886 9fbe
00000350: e76b 4c3e 712f 5abe 9133 5ebd 39a4 acbe
00000360: 693e 5dbe fbc6 913e 03c4 3abd f6f8 203d
00000370: 3b04 c3ba 1f5d 383d 0cd2 98be 45bf 88be
00000380: 6c39 773d 8a53 02be 3146 86be 23e1 183f
00000390: 0237 83ba b97c f23c dda2 f13e 5745 56be
000003a0: 9933 8b39 71dc c5ba 55da f63c e306 003d
000003b0: 03a4 153e 7cc3 2abe 133b 453d 8b95 11be
000003c0: fcfe 603d df7d f1bd 795e 41be 2031 e03e
000003d0: 79c3 be3c 594c b4bd 969f e43e 3a85 ce3e
000003e0: 1bfc 9b3c 59f3 5b3c 8521 ea3c 7d69 c8be
000003f0: 9ac1 1a3e 8a8e 433d 7f9e e93e 67ca 72bf

value.bias f4 [64]
-0.17256089 -0.40010515 -0.11068258 0.036273815 -0.091018036 -0.3031563 0.09898625 -0.1760661
-0.21222642 -0.6814803 -0.11334529 -0.69134754 0.41817397 0.8004679 0.518769 -0.46871942
-0.503782 -0.26329255 -0.6265133 -0.36227298 -0.22146857 0.16013782 -0.23492648 -0.29676482
-0.6115512 -0.68474334 0.38484564 0.44878477 0.41848835 0.029516295 0.07024591 0.19296832
-0.069071636 -0.196862 -0.6969577 -0.09891291 0.28366718 -0.46631774 -0.46311966 0.5252338
-0.060842432 -0.20614153 0.21263063 -0.5081529 -0.20260376 0.18569253 0.7386677 0.09790294
0.40429533 0.8161339 -0.253697 0.062043987 -0.124640875 -0.53955084 -0.4088248 -0.8399431
-0.3892726 0.06034147 -0.18831553 -0.21003893 0.12015698 0.58172584 0.11196296 -0.49451587
00000000: cdb3 30be 95da ccbe 8cad e2bd da93 143d
00000010: aa67 babd 4d37 9bbe 4eb9 ca3d ac4a 34be
00000020: e251 59be 7e75 2ebf 9321 e8bd 27fc 30bf
00000030: e61a d63e 77eb 4c3f 0cce 043f fefb efbe
00000040: dbf7 00bf 48ce 86be 2d63 20bf d87b b9be
00000050: a8c8 62be 2bfb 233e 9190 70be 8ff1 97be
00000060: 9f8e 1cbf 574b 2fbf 7d0a c53e 1ec7 e53e
00000070: 1b44 d63e 28cc f13c 16dd 8f3d 7d99 453e
00000080: 6e75 8dbd 3196 49be d26b 32bf da92 cabd
00000090: d33c 913e 33c1 eebe 051e edbe b975 063f
000000a0: ea35 79bd c416 53be d8bb 593e 4f16 02bf
000000b0: 5c77 4fbe 2f26 3e3e 5419 3d3f 5681 c83d
000000c0: ccff ce3e 27ee 503f 93e4 81be d621 7e3d
000000d0: b743 ffbd 0120 0abf 7c51 d1be 8306 57bf
000000e0: bd4e c7be 9e28 773d c9d5 40be 7214 57be
000000f0: dd14 f63d fceb 143f d64c e53d 2f31 fdbe

fc3_adv.weight f4 [19, 1152]
0.0035489502 -0.022987366 -0.008692236 0.017404288 -0.0049762353 0.0067680697 -0.006224036 0.010481221
-0.009360588 -0.018872764 -0.024447303 0.04068416 -0.007213643 0.0037093258 0.028123192 -0.01887899
-0.008988821 0.013995022 0.011511842 -0.017924568 0.0072480845 0.0030639241 0.011532419 -0.0068713226
0.0041523967 -0.021045355 -0.034373026 0.006118707 -0.0009865161 -0.0018545123 -0.018343678 0.014158872
-0.001685795 0.030702071 -0.030158946 -0.0049991445 0.0029975679 0.014907212 -0.027290527 0.021692662
0.02435613 -0.022217007 0.02849999 -0.019012766 -0.015299958 0.0114392815 0.009300261 0.01996971
-0.031084644 0.0035635238 -0.018778725 0.00021434599 -0.0018615567 0.024904588 -0.0327011 -0.021896621
-0.0080448715 0.0013732832 -0.021721696 0.0104915835 -0.0067614964 -0.0046389713 -0.021665124 -0.019816624
-0.017614061 -0.012317517 -0.011463202 0.022460992 -0.014543021 -0.014604671 -0.019370122 -0.032486368
0.023035584 0.013110926 -0.02337777 0.03812517 0.0039618076 -0.0057457057 -0.0058021434 -0.016260304
-0.025330463 0.0005008169 -0.00298237 0.02332193 -0.01002013 0.02321279 -0.0015975041 -0.014982003
-0.004390718 0.0019244354 -0.015425098 0.016289763 -0.0154158315 0.019010706 -0.00974003 0.033851903
0.0026389493 0.0002702738 -0.01532803 -0.001705881 -0.01507163 -0.0075299707 -0.02981388 -0.0051643667
-0.0068669436 0.011457801 -0.019383581 0.018027956 -0.034863047 -0.028634544 -0.008488146 0.025095886
0.025239984 0.02678497 -0.023399973 -0.0050658197 -0.02638698 0.015693355 -0.013414646 -0.026360046
-0.023093823 -0.014400877 0.010199762 0.009520644 -0.017470857 -0.023080131 -0.004848402 -0.027485035
0.007838651 -0.018720435 0.025199048 -0.010578093 0.023106366 -0.0066228756 -0.015409808 -0.0011752862
0.034946095 -0.005648255 0.0028446177 0.04073318 0.034274206 -0.01940452 0.02089719 -0.015491092
-0.0062334384 0.017709414 -0.017268961 6.7038694e-05 0.025211358 0.021857316 0.01792131 0.011273958
0.005411688 0.014303326 0.017408473 -0.020370314 0.03316957 -0.016774032 0.0070217177 0.028580502
0.02379028 0.015182729 -0.0026193785 -0.019579943 -0.011254305 0.021824015 0.020026099 0.0090464465
0.005495865 0.004669074 0.007889627 -0.027544945 -0.030789284 0.02775401 -0.012470004 0.016153896
0.010696557 0.00041474172 -0.0059514293 0.01239799 -0.014108045 -0.0049890736 -0.005316133 0.018701544
-0.012702723 0.004970444 -0.029407142 0.017210323 -0.015220357 -0.017454848 0.025040984 -0.0038441436
-0.0131748095 -0.0139477905 0.013799113 0.016228037 -0.03171807 0.009722431 0.018030765 0.018078234
-0.020562768 0.005302652 0.022287184 -0.0024719338 0.027923513 -0.0025309073 0.0077471468 -0.021594135
-0.004278017 0.022747787 0.009636019 -0.035293896 0.014975191 0.018497802 0.005422595 -0.005126369
-0.0011656446 -0.016695837 0.0065874015 0.010458517 -0.012773215 -0.0039067157 0.005054545 -0.015724996
0.0011136723 -0.016667569 -0.0041353586 0.019161193 -0.032331955 0.01644734 -0.00787831 -0.013458751
0.015909748 0.008813848 0.016551385 -0.0042110584 0.01067885 0.005687759 -0.009366207 0.021672564
-0.005563787 -0.024434105 -0.00090556475 0.010568786 -0.015074705 -0.027041743 -0.0036622987 -0.022894954
0.020689696 0.018519936 0.0067320527 0.01852666 0.036782723 -0.0001555502 0.02397057 0.020480642
00000000: 8195 683b 0050 bcbc e169 0ebc 7093 8e3c
00000010: b00f a3bb afc6 dd3b 00f3 cbbb 6db9 2b3c
00000020: 275d 19bc 0e9b 9abc b645 c8bc 6fa4 263d
00000030: 6c60 ecbb 2918 733b 9c62 e63c 1da8 9abc
00000040: d945 13bc 604b 653c 2a9c 3c3c 8bd6 92bc
00000050: 5781 ed3b 1ecc 483b 79f2 3c3c d528 e1bb
00000060: d410 883b 4f67 acbc bbca 0cbd 6f7f c83b
00000070: fd4d 81ba 1b13 f3ba 7b45 96bc 9dfa 673c
00000080: e5f5 dcba e982 fb3c e50f f7bc ddcf a3bb
00000090: d872 443b 613d 743c 6290 dfbc cfb4 b13c
000000a0: 8286 c73c 7100 b6bc d078 e93c a9c0 9bbc
000000b0: adac 7abc d36b 3b3c 1f60 183c 8497 a33c
000000c0: 39a5 febc 028a 693b d7d5 99bc 10c2 6039
000000d0: 7aff f3ba b504 cc3c 97f1 05bd 8b60 b3bc
000000e0: a3ce 03bc bdff b33a b3f1 b1bc e4e4 2b3c
000000f0: 8b8f ddbb 8302 98bb 0f7b b1bc 7956 a2bc
00000100: 5d4b 90bc 69cf 49bc 27d0 3bbc 1d00 b83c
00000110: da45 6ebc 6e48 6fbc 17ae 9ebc 6d10 05bd
00000120: 1fb5 bc3c 36cf 563c bd82 bfbc 2329 1c3d
00000130: 0dd2 813b 7946 bcbb e81f bebb 5434 85bc
00000140: d581 cfbc 4149 033a de73 43bb a20d bf3c
00000150: 792b 24bc c028 be3c 5863 d1ba 1377 75bc
00000160: 03e0 8fbb 563d fc3a 8db9 7cbc 1c72 853c
00000170: af92 7cbc 57bc 9b3c a694 1fbc 4ba8 0a3d
00000180: 39f2 2c3b 89b3 8d39 6b22 7bbc de97 dfba
00000190: ffee 76bc f9bd f6bb 3d3c f4bc d939 a9bb
000001a0: 1904 e1bb 80b9 3b3c 51ca 9ebc 5daf 933c
000001b0: 8ecc 0ebd fe92 eabc dd11 0bbc e395 cd3c
000001c0: 15c4 ce3c 276c db3c 4db1 bfbc 2dff a5bb
000001d0: 8229 d8bc 5a8f 803c 1ac9 5bbc 06f1 d7bc
000001e0: 422f bdbc a8f1 6bbc e71c 273c 7afc 1b3c
000001f0: 0b1f 8fbc 8b12 bdbc 58df 9ebb 4c28 e1bc
00000200: af6d 003c 995b 99bc 3c6e ce3c bd4f 2dbc
00000210: 9049 bd3c b504 d9bb 6b79 7cbc 100c 9aba
00000220: a323 0f3d ff14 b9bb c46c 3a3b d6d7 263d
00000230: 1c63 0c3d 3af6 9ebc 9530 ab3c 59ce 7dbc
00000240: df41 ccbb 5513 913c a377 8dbc 2097 8c38
00000250: 0d88 ce3c 1d0e b33c b6cf 923c 68b6 383c
00000260: 8754 b13b 7f58 6a3c 379c 8e3c a5df a6bc
00000270: d1dc 073d b269 89bc 7016 e63b a821 ea3c
00000280: d5e3 c23c fbc0 783c e1a9 2bbb 1e66 a0bc
00000290: fa63 38bc 47c8 b23c c60d a43c 8c37 143c
000002a0: a816 b43b 08ff 983b 7e43 013c f0a5 e1bc
000002b0: cf39 fcbc 615c e33c fd4e 4cbc 2d55 843c
000002c0: 9d40 2f3c b171 d939 3504 c3bb f020 4b3c
000002d0: 6e25 67bc 627b a3bb f532 aebb fb33 993c
000002e0: 151f 50bc 1bdf a23b 3fe7 f0bc aafc 8c3c
000002f0: ce5e 79bc 78fd 8ebc c022 cd3c 07ee 7bbb
00000300: 28db 57bc 4685 64bc ad15 623c a9f0 843c
00000310: cfea 01bd d54a 1f3c 41b5 933c ce18 943c
00000320: 4073 a8bc dec1 ad3b 9d93 b63c 2b00 22bb
00000330: dabf e43c 94dd 25bb c7db fd3b 2fe6 b0bc
00000340: 9c2e 8cbb 9159 ba3c 65e0 1d3c 5590 10bd
00000350: 815a 753c b488 973c 06b0 b13b 1afb a7bb
00000360: 8bc8 98ba b5c5 88bc 21db d73b 335a 2b3c
00000370: bf46 51bc e803 80bb 99a0 a53b b5d1 80bc
00000380: a4f8 913a 6d8a 88bc e781 87bb eff7 9c3c
00000390: 836e 04bd 92bc 863c 0714 01bc 1882 5cbc
000003a0: 2955 823c f567 103c c596 873c ebfc 89bb
000003b0: 58f6 2e3c 6160 ba3b b874 19bc a98a b13c
000003c0: 6e50 b6bb 082a c8bc 6c63 6dba b428 2d3c
000003d0: e5fb 76bc a586 ddbc 2d03 70bb 338e bbbc
000003e0: 707d a93c 1fb7 973c 8d98 dc3b 39c5 973c
000003f0: 7ba9 163d 301b 23b9 ee5d c43c 05c7 a73c

fc3_adv.bias f4 [19]
-0.016425561 -0.010195169 0.0077452227 -0.072734386 0.043707754 0.01162056 0.003013621 -0.0035707739
-0.03712618 0.053317398 0.0383166 -0.00046235713 -0.011027775 -0.030266358 0.0010030352 0.011187848
0.014372738 0.021559015 0.12067821
00000000: e68e 86bc a309 27bc a3cb fd3b c4f5 94bd
00000010: e706 333d 2964 3e3c 2c80 453b a503 6abb
00000020: 9f11 18bd 5863 5a3d def1 1c3d 8668 f2b9
00000030: d7ad 34bc 27f1 f7bc 4778 833a 3c4d 373c
00000040: a27b 6b3c 889c b03c 2326 f73d

fc3_v.weight f4 [1, 1152]
0.015735283 0.003319267 0.0192666 0.0046068127 -0.018417777 -0.0032725132 -0.002620915 0.01655487
0.03391394 -0.022378359 -0.024385294 0.04398903 -0.02578402 -0.024320386 0.019395657 0.0112622045
0.012782443 0.01042696 -0.02346759 -0.0044640317 0.0024467192 0.0078816265 0.00014587872 0.005631936
0.024506908 -0.016728852 0.012838692 0.017797552 -0.0031662267 -0.0028625312 -0.004241125 0.03231983
0.0048828456 -0.0048298 0.016176298 0.016472483 -0.007072893 -0.0050161886 -0.0071507855 -0.015500192
0.028360993 0.016781246 -0.030768387 -0.03834982 -0.02146247 -0.0071305283 0.0075275498 -0.012336266
0.00068665115 -0.012939308 -0.009302769 0.009347424 0.023608053 0.0128117595 -0.024027178 0.0023622783
-0.011120507 -0.006090859 0.015501872 -0.020196334 -0.0016548076 -0.00790801 -0.022836741 -0.008504379
-0.004437472 0.004571561 -0.013716233 0.01198353 -0.0076926574 0.020823888 -0.030656546 -0.003799798
-0.014746611 -0.010376222 0.014490607 -0.001207406 -0.020801634 -0.03047047 -0.009948902 -0.016472215
0.008512705 0.00058959884 -0.017347887 0.0018827684 -0.016805107 -0.0067212647 0.017773159 0.004070735
0.017816037 0.016235497 0.031921707 0.020461505 0.02190561 0.0072751413 -0.0060314345 -0.010892036
0.008029575 0.005067847 0.006271306 0.001611491 -0.012743945 -0.005793435 -0.021614632 0.028967626
0.023142302 0.014222463 0.010437724 0.0043888134 0.012634635 -0.026700497 -0.0003216124 0.0009814729
-0.0129299555 -0.015486934 0.008936601 -0.012994479 0.009123735 0.0031511125 -0.020522911 0.0004960159
0.011577804 -0.007340422 -0.01324328 0.0039776936 -0.013677154 -0.022238571 0.010342466 -0.02231793
-0.0062581724 0.0026508665 -0.009822414 -0.01211328 0.013040849 -0.01411808 0.016604498 -0.007866078
-0.0023065023 0.0064189048 0.0001646439 -0.013758825 0.021931095 0.015654592 -0.009900497 0.008735924
-0.02241036 0.009383959 0.0030696748 0.011599997 0.012311041 0.010834597 -0.011554672 -0.0032112382
0.021065198 0.022292437 -0.021094099 -0.003985584 0.009453772 0.02112544 -0.021632547 -0.00039184446
0.008282356 0.00047377488 -0.011844451 -0.017170692 0.023625195 -0.010582771 0.023811001 -0.018896878
-0.010083232 -0.008833228 -0.011820809 -0.048746973 -0.01209892 0.008383346 -0.0020183702 -0.0023557246
0.0074263564 -0.020639071 -0.0041042175 0.008676076 -0.02058888 0.01348251 0.0013885237 0.004187966
-0.020657405 -0.02978055 -0.0049393424 0.011106826 0.009957328 -0.017046614 0.011734067 -0.004630121
0.03426049 0.0045156633 -0.012819276 0.01039326 0.0009365474 0.014623295 0.015457036 -0.0113012185
0.027233286 -0.0054572592 0.0018862281 -0.031591322 -0.008388517 0.014812373 -0.013754081 -0.0039532697
0.009605571 -0.0029298598 0.012427244 -0.0007931587 0.008452807 -0.007864444 -0.032577798 0.012961481
-0.019864775 0.010665682 0.0082682 -0.0074656904 -0.02672745 -0.022196395 0.024728082 -0.003177211
0.013301491 -0.012478431 0.015636401 0.01774949 -0.006378921 -0.01021718 -0.011590381 0.006160307
0.025281804 0.01839617 -0.018370828 -0.031661507 -0.009371106 0.0028350758 0.0108256815 0.023987126
0.0007160282 0.023946857 -0.028368013 -0.016836982 -0.010396761 -0.012189867 0.019958612 0.039258253
0.013293799 -0.02751929 -0.015313479 0.02686988 0.006488163 0.0074969274 -0.022643832 0.005167731
00000000: 48e7 803c 0f88 593b fdd4 9d3c bff4 963b
00000010: e1e0 96bc a977 56bb a8c3 2bbb 149e 873c
00000020: 58e9 0a3d d252 b7bc abc3 c7bc d72d 343d
00000030: 0239 d3bc 8c3b c7bc a4e3 9e3c 1c85 383c
00000040: 746d 513c d7d5 2a3c 1a3f c0bc 0347 92bb
00000050: 2359 203b f021 013c 05f7 1839 1a8c b83b
00000060: b6c2 c83c f20a 89bc 6159 523c 2ccc 913c
00000070: 7880 4fbb 4e99 3bbb 23f9 8abb cc61 043d
00000080: 4700 a03b 4d43 9ebb 2884 843c 4df1 863c
00000090: bac3 e7bb d75e a4bb 2351 eabb 84f4 7dbc
000000a0: 5055 e83c d378 893c fc0d fcbc b314 1dbd
000000b0: 10d2 afbc 35a7 e9bb aaa9 f63b 0d1e 4abc
000000c0: 6100 343a 64ff 53bc a46a 18bc f025 193c
000000d0: ad65 c13c 6ae8 513c a5d4 c4bc 74d0 1a3b
000000e0: c932 36bc d495 c7bb 90fb 7d3c c872 a5bc
000000f0: 21e6 d8ba 9990 01bc 1e14 bbbc f355 0bbc
00000100: 3768 91bb 08cd 953b 0dba 60bc 9156 443c
00000110: b012 fcbb dc96 aa3c 7023 fbbc 0806 79bb
00000120: c59b 71bc 0801 2abc 036a 6d3c d341 9eba
00000130: 3068 aabc 359d f9bc b800 23bc bdf0 86bc
00000140: df78 0b3c 4f8f 1a3a 281d 8ebc 39c7 f63a
00000150: ddaa 89bc 0e3e dcbb 0499 913c cd63 853b
00000160: f0f2 913c 4e00 853c 56c0 023d e39e a73c
00000170: 6573 b33c 4f64 ee3b 57a3 c5bb 8374 32bc
00000180: 7b8e 033c 2f10 a63b 877f cd3b aa38 d33a
00000190: fbcb 50bc dbd6 bdbb 2b11 b1bc 844d ed3c
000001a0: ed94 bd3c 5505 693c fd02 2b3c 09d0 8f3b
000001b0: 8001 4f3c 00bb dabc 169e a8b9 c4a4 803a
000001c0: 2ad8 53bc e9bc 7dbc d26a 123c cce6 54bc
000001d0: b87b 153c e582 4e3b aa1f a8bc 1007 023a
000001e0: d4b0 3d3c ec87 f0bb 58fa 58bc 5057 823b
000001f0: 2416 60bc aa2d b6bc 7273 293c 17d4 b6bc
00000200: 5b11 cdbb 29ba 2d3b 31ee 20bc c776 46bc
00000210: 49a9 553c 854f 67bc 2806 883c b9e0 00bc
00000220: b028 17bb ad55 d23b 43a4 2c39 b26c 61bc
00000230: d7a8 b33c 0f3e 803c b235 22bc 1f21 0f3c
00000240: ee95 b7bc 2dbf 193c 992c 493b ea0d 3e3c
00000250: 40b4 493c 9883 313c cf4f 3dbc a373 52bb
00000260: ec90 ac3c a19e b63c 88cd acbc 8099 82bb
00000270: fee3 1a3c 420f ad3c bd36 b1bc 7970 cdb9
00000280: b8b2 073c fd64 f839 3a0f 42bc 8da9 8cbc
00000290: a089 c13c 5c63 2dbc 4a0f c33c a0cd 9abc
000002a0: 2434 25bc 3eb9 10bc 11ac 41bc e8aa 47bd
000002b0: 8c3a 46bc 4d5a 093c a246 04bb 8062 1abb
000002c0: cb58 f33b 4513 a9bc ac7c 86bb 1a26 0e3c
000002d0: 03aa a8bc bfe5 5c3c 20ff b53a 353b 893b
000002e0: b839 a9bc 57f6 f3bc 35da a1bb 68f9 353c
000002f0: 1024 233c 57a5 8bbc 3f40 403c 45b8 97bb
00000300: ba54 0c3d 21f8 933b f107 52bc 7e48 2a3c
00000310: a282 753a 8b96 6f3c 823f 7d3c bf28 39bc
00000320: 5718 df3c cfd2 b2bb 503b f73a e765 01bd
00000330: fe6f 09bc 98af 723c cc58 61bc 6e8a 81bb
00000340: af60 1d3c e402 40bb a49b 4b3c fbeb 4fba
00000350: a47d 0a3c ded9 00bc 4c70 05bd 645c 543c
00000360: 74bb a2bc 1dbf 2e3c 5877 073c c0a2 f4bb
00000370: 86f3 dabc 37d5 b5bc 8c92 ca3c c138 50bb
00000380: 7fee 593c 5572 4cbc e917 803c 6167 913c
00000390: 4506 d1bb f565 27bc 95e5 3dbc 67dc c93b
000003a0: c91b cf3c 91b3 963c 6b7e 96bc 7faf 01bd
000003b0: 4489 19bc aecc 393b 335e 313c a680 c43c
000003c0: d7b3 3b3a 332c c43c 0964 e8bc b6ed 89bc
000003d0: 2d57 2abc 02b8 47bc 3e80 a33c 43cd 203d
000003e0: 3cce 593c 2270 e1bc 63e5 7abc 391e dc3c
000003f0: a89a d43b c9a8 f53b 8f7f b9bc 1256 a93b
